weights: checkpoint/epoch_320.hdf5
__________________________________________________________________________________________________
Layer (type)                    Output Shape         Param #     Connected to
==================================================================================================
Input (InputLayer)              (None, 96, 96, 3)    0
__________________________________________________________________________________________________
input_mean_normalization (Lambd (None, 96, 96, 3)    0           Input[0][0]
__________________________________________________________________________________________________
input_stddev_normalization (Lam (None, 96, 96, 3)    0           input_mean_normalization[0][0]
__________________________________________________________________________________________________
input_channel_swap (Lambda)     (None, 96, 96, 3)    0           input_stddev_normalization[0][0]
__________________________________________________________________________________________________
conv_0 (Conv2D)                 (None, 48, 48, 16)   1200        input_channel_swap[0][0]
__________________________________________________________________________________________________
conv_0_bn (BatchNormalization)  (None, 48, 48, 16)   64          conv_0[0][0]
__________________________________________________________________________________________________
conv_0_act (Activation)         (None, 48, 48, 16)   0           conv_0_bn[0][0]
__________________________________________________________________________________________________
block_0_expand (Conv2D)         (None, 48, 48, 96)   1536        conv_0_act[0][0]
__________________________________________________________________________________________________
block_0_expand_BN (BatchNormali (None, 48, 48, 96)   384         block_0_expand[0][0]
__________________________________________________________________________________________________
block_0_expand_relu (ReLU)      (None, 48, 48, 96)   0           block_0_expand_BN[0][0]
__________________________________________________________________________________________________
block_0_depthwise (DepthwiseCon (None, 48, 48, 96)   864         block_0_expand_relu[0][0]
__________________________________________________________________________________________________
block_0_depthwise_BN (BatchNorm (None, 48, 48, 96)   384         block_0_depthwise[0][0]
__________________________________________________________________________________________________
block_0_depthwise_relu (ReLU)   (None, 48, 48, 96)   0           block_0_depthwise_BN[0][0]
__________________________________________________________________________________________________
block_0_project (Conv2D)        (None, 48, 48, 16)   1536        block_0_depthwise_relu[0][0]
__________________________________________________________________________________________________
block_0_project_BN (BatchNormal (None, 48, 48, 16)   64          block_0_project[0][0]
__________________________________________________________________________________________________
block_0_add (Add)               (None, 48, 48, 16)   0           conv_0_act[0][0]
                                                                 block_0_project_BN[0][0]
__________________________________________________________________________________________________
block_1_expand (Conv2D)         (None, 48, 48, 96)   1536        block_0_add[0][0]
__________________________________________________________________________________________________
block_1_expand_BN (BatchNormali (None, 48, 48, 96)   384         block_1_expand[0][0]
__________________________________________________________________________________________________
block_1_expand_relu (ReLU)      (None, 48, 48, 96)   0           block_1_expand_BN[0][0]
__________________________________________________________________________________________________
block_1_depthwise (DepthwiseCon (None, 24, 24, 96)   864         block_1_expand_relu[0][0]
__________________________________________________________________________________________________
block_1_depthwise_BN (BatchNorm (None, 24, 24, 96)   384         block_1_depthwise[0][0]
__________________________________________________________________________________________________
block_1_depthwise_relu (ReLU)   (None, 24, 24, 96)   0           block_1_depthwise_BN[0][0]
__________________________________________________________________________________________________
block_1_project (Conv2D)        (None, 24, 24, 32)   3072        block_1_depthwise_relu[0][0]
__________________________________________________________________________________________________
block_1_project_BN (BatchNormal (None, 24, 24, 32)   128         block_1_project[0][0]
__________________________________________________________________________________________________
block_2_expand (Conv2D)         (None, 24, 24, 192)  6144        block_1_project_BN[0][0]
__________________________________________________________________________________________________
block_2_expand_BN (BatchNormali (None, 24, 24, 192)  768         block_2_expand[0][0]
__________________________________________________________________________________________________
block_2_expand_relu (ReLU)      (None, 24, 24, 192)  0           block_2_expand_BN[0][0]
__________________________________________________________________________________________________
block_2_depthwise (DepthwiseCon (None, 24, 24, 192)  1728        block_2_expand_relu[0][0]
__________________________________________________________________________________________________
block_2_depthwise_BN (BatchNorm (None, 24, 24, 192)  768         block_2_depthwise[0][0]
__________________________________________________________________________________________________
block_2_depthwise_relu (ReLU)   (None, 24, 24, 192)  0           block_2_depthwise_BN[0][0]
__________________________________________________________________________________________________
block_2_project (Conv2D)        (None, 24, 24, 32)   6144        block_2_depthwise_relu[0][0]
__________________________________________________________________________________________________
block_2_project_BN (BatchNormal (None, 24, 24, 32)   128         block_2_project[0][0]
__________________________________________________________________________________________________
block_2_add (Add)               (None, 24, 24, 32)   0           block_1_project_BN[0][0]
                                                                 block_2_project_BN[0][0]
__________________________________________________________________________________________________
block_3_expand (Conv2D)         (None, 24, 24, 192)  6144        block_2_add[0][0]
__________________________________________________________________________________________________
block_3_expand_BN (BatchNormali (None, 24, 24, 192)  768         block_3_expand[0][0]
__________________________________________________________________________________________________
block_3_expand_relu (ReLU)      (None, 24, 24, 192)  0           block_3_expand_BN[0][0]
__________________________________________________________________________________________________
block_3_depthwise (DepthwiseCon (None, 12, 12, 192)  1728        block_3_expand_relu[0][0]
__________________________________________________________________________________________________
block_3_depthwise_BN (BatchNorm (None, 12, 12, 192)  768         block_3_depthwise[0][0]
__________________________________________________________________________________________________
block_3_depthwise_relu (ReLU)   (None, 12, 12, 192)  0           block_3_depthwise_BN[0][0]
__________________________________________________________________________________________________
block_3_project (Conv2D)        (None, 12, 12, 64)   12288       block_3_depthwise_relu[0][0]
__________________________________________________________________________________________________
block_3_project_BN (BatchNormal (None, 12, 12, 64)   256         block_3_project[0][0]
__________________________________________________________________________________________________
block_4_expand (Conv2D)         (None, 12, 12, 384)  24576       block_3_project_BN[0][0]
__________________________________________________________________________________________________
block_4_expand_BN (BatchNormali (None, 12, 12, 384)  1536        block_4_expand[0][0]
__________________________________________________________________________________________________
block_4_expand_relu (ReLU)      (None, 12, 12, 384)  0           block_4_expand_BN[0][0]
__________________________________________________________________________________________________
block_4_depthwise (DepthwiseCon (None, 12, 12, 384)  3456        block_4_expand_relu[0][0]
__________________________________________________________________________________________________
block_4_depthwise_BN (BatchNorm (None, 12, 12, 384)  1536        block_4_depthwise[0][0]
__________________________________________________________________________________________________
block_4_depthwise_relu (ReLU)   (None, 12, 12, 384)  0           block_4_depthwise_BN[0][0]
__________________________________________________________________________________________________
block_4_project (Conv2D)        (None, 12, 12, 64)   24576       block_4_depthwise_relu[0][0]
__________________________________________________________________________________________________
block_4_project_BN (BatchNormal (None, 12, 12, 64)   256         block_4_project[0][0]
__________________________________________________________________________________________________
block_4_add (Add)               (None, 12, 12, 64)   0           block_3_project_BN[0][0]
                                                                 block_4_project_BN[0][0]
__________________________________________________________________________________________________
block_5_expand (Conv2D)         (None, 12, 12, 384)  24576       block_4_add[0][0]
__________________________________________________________________________________________________
block_5_expand_BN (BatchNormali (None, 12, 12, 384)  1536        block_5_expand[0][0]
__________________________________________________________________________________________________
block_5_expand_relu (ReLU)      (None, 12, 12, 384)  0           block_5_expand_BN[0][0]
__________________________________________________________________________________________________
block_5_depthwise (DepthwiseCon (None, 6, 6, 384)    3456        block_5_expand_relu[0][0]
__________________________________________________________________________________________________
block_5_depthwise_BN (BatchNorm (None, 6, 6, 384)    1536        block_5_depthwise[0][0]
__________________________________________________________________________________________________
block_5_depthwise_relu (ReLU)   (None, 6, 6, 384)    0           block_5_depthwise_BN[0][0]
__________________________________________________________________________________________________
block_5_project (Conv2D)        (None, 6, 6, 128)    49152       block_5_depthwise_relu[0][0]
__________________________________________________________________________________________________
block_5_project_BN (BatchNormal (None, 6, 6, 128)    512         block_5_project[0][0]
__________________________________________________________________________________________________
block_6_expand (Conv2D)         (None, 6, 6, 768)    98304       block_5_project_BN[0][0]
__________________________________________________________________________________________________
block_6_expand_BN (BatchNormali (None, 6, 6, 768)    3072        block_6_expand[0][0]
__________________________________________________________________________________________________
block_6_expand_relu (ReLU)      (None, 6, 6, 768)    0           block_6_expand_BN[0][0]
__________________________________________________________________________________________________
block_6_depthwise (DepthwiseCon (None, 6, 6, 768)    6912        block_6_expand_relu[0][0]
__________________________________________________________________________________________________
block_6_depthwise_BN (BatchNorm (None, 6, 6, 768)    3072        block_6_depthwise[0][0]
__________________________________________________________________________________________________
block_6_depthwise_relu (ReLU)   (None, 6, 6, 768)    0           block_6_depthwise_BN[0][0]
__________________________________________________________________________________________________
block_6_project (Conv2D)        (None, 6, 6, 128)    98304       block_6_depthwise_relu[0][0]
__________________________________________________________________________________________________
block_6_project_BN (BatchNormal (None, 6, 6, 128)    512         block_6_project[0][0]
__________________________________________________________________________________________________
block_6_add (Add)               (None, 6, 6, 128)    0           block_5_project_BN[0][0]
                                                                 block_6_project_BN[0][0]
__________________________________________________________________________________________________
pooling (GlobalMaxPooling2D)    (None, 128)          0           block_6_add[0][0]
__________________________________________________________________________________________________
dense_expand (Dense)            (None, 512)          66048       pooling[0][0]
__________________________________________________________________________________________________
dense (Dense)                   (None, 136)          69768       dense_expand[0][0]
==================================================================================================
Total params: 532,728
Trainable params: 523,320
Non-trainable params: 9,408
__________________________________________________________________________________________________
