weights: checkpoint/weights-05-0.3021.hdf5
__________________________________________________________________________________________________
Layer (type)                    Output Shape         Param #     Connected to
==================================================================================================
input (InputLayer)              (None, 256, 256, 3)  0
__________________________________________________________________________________________________
identity_layer (Lambda)         (None, 256, 256, 3)  0           input[0][0]
__________________________________________________________________________________________________
input_mean_normalization (Lambd (None, 256, 256, 3)  0           identity_layer[0][0]
__________________________________________________________________________________________________
input_stddev_normalization (Lam (None, 256, 256, 3)  0           input_mean_normalization[0][0]
__________________________________________________________________________________________________
conv_0 (Conv2D)                 (None, 128, 128, 8)  600         input_stddev_normalization[0][0]
__________________________________________________________________________________________________
conv_0_bn (BatchNormalization)  (None, 128, 128, 8)  32          conv_0[0][0]
__________________________________________________________________________________________________
conv_0_relu (Activation)        (None, 128, 128, 8)  0           conv_0_bn[0][0]
__________________________________________________________________________________________________
block_0_expand (Conv2D)         (None, 128, 128, 48) 384         conv_0_relu[0][0]
__________________________________________________________________________________________________
block_0_expand_BN (BatchNormali (None, 128, 128, 48) 192         block_0_expand[0][0]
__________________________________________________________________________________________________
block_0_expand_relu (ReLU)      (None, 128, 128, 48) 0           block_0_expand_BN[0][0]
__________________________________________________________________________________________________
block_0_depthwise (DepthwiseCon (None, 128, 128, 48) 432         block_0_expand_relu[0][0]
__________________________________________________________________________________________________
block_0_depthwise_BN (BatchNorm (None, 128, 128, 48) 192         block_0_depthwise[0][0]
__________________________________________________________________________________________________
block_0_depthwise_relu (ReLU)   (None, 128, 128, 48) 0           block_0_depthwise_BN[0][0]
__________________________________________________________________________________________________
block_0_project (Conv2D)        (None, 128, 128, 8)  384         block_0_depthwise_relu[0][0]
__________________________________________________________________________________________________
block_0_project_BN (BatchNormal (None, 128, 128, 8)  32          block_0_project[0][0]
__________________________________________________________________________________________________
block_0_add (Add)               (None, 128, 128, 8)  0           conv_0_relu[0][0]
                                                                 block_0_project_BN[0][0]
__________________________________________________________________________________________________
block_1_expand (Conv2D)         (None, 128, 128, 48) 384         block_0_add[0][0]
__________________________________________________________________________________________________
block_1_expand_BN (BatchNormali (None, 128, 128, 48) 192         block_1_expand[0][0]
__________________________________________________________________________________________________
block_1_expand_relu (ReLU)      (None, 128, 128, 48) 0           block_1_expand_BN[0][0]
__________________________________________________________________________________________________
block_1_depthwise (DepthwiseCon (None, 128, 128, 48) 432         block_1_expand_relu[0][0]
__________________________________________________________________________________________________
block_1_depthwise_BN (BatchNorm (None, 128, 128, 48) 192         block_1_depthwise[0][0]
__________________________________________________________________________________________________
block_1_depthwise_relu (ReLU)   (None, 128, 128, 48) 0           block_1_depthwise_BN[0][0]
__________________________________________________________________________________________________
block_1_project (Conv2D)        (None, 128, 128, 16) 768         block_1_depthwise_relu[0][0]
__________________________________________________________________________________________________
block_1_project_BN (BatchNormal (None, 128, 128, 16) 64          block_1_project[0][0]
__________________________________________________________________________________________________
block_2_expand (Conv2D)         (None, 128, 128, 96) 1536        block_1_project_BN[0][0]
__________________________________________________________________________________________________
block_2_expand_BN (BatchNormali (None, 128, 128, 96) 384         block_2_expand[0][0]
__________________________________________________________________________________________________
block_2_expand_relu (ReLU)      (None, 128, 128, 96) 0           block_2_expand_BN[0][0]
__________________________________________________________________________________________________
block_2_pad (ZeroPadding2D)     (None, 129, 129, 96) 0           block_2_expand_relu[0][0]
__________________________________________________________________________________________________
block_2_depthwise (DepthwiseCon (None, 64, 64, 96)   864         block_2_pad[0][0]
__________________________________________________________________________________________________
block_2_depthwise_BN (BatchNorm (None, 64, 64, 96)   384         block_2_depthwise[0][0]
__________________________________________________________________________________________________
block_2_depthwise_relu (ReLU)   (None, 64, 64, 96)   0           block_2_depthwise_BN[0][0]
__________________________________________________________________________________________________
block_2_project (Conv2D)        (None, 64, 64, 16)   1536        block_2_depthwise_relu[0][0]
__________________________________________________________________________________________________
block_2_project_BN (BatchNormal (None, 64, 64, 16)   64          block_2_project[0][0]
__________________________________________________________________________________________________
block_3_expand (Conv2D)         (None, 64, 64, 96)   1536        block_2_project_BN[0][0]
__________________________________________________________________________________________________
block_3_expand_BN (BatchNormali (None, 64, 64, 96)   384         block_3_expand[0][0]
__________________________________________________________________________________________________
block_3_expand_relu (ReLU)      (None, 64, 64, 96)   0           block_3_expand_BN[0][0]
__________________________________________________________________________________________________
block_3_depthwise (DepthwiseCon (None, 64, 64, 96)   864         block_3_expand_relu[0][0]
__________________________________________________________________________________________________
block_3_depthwise_BN (BatchNorm (None, 64, 64, 96)   384         block_3_depthwise[0][0]
__________________________________________________________________________________________________
block_3_depthwise_relu (ReLU)   (None, 64, 64, 96)   0           block_3_depthwise_BN[0][0]
__________________________________________________________________________________________________
block_3_project (Conv2D)        (None, 64, 64, 16)   1536        block_3_depthwise_relu[0][0]
__________________________________________________________________________________________________
block_3_project_BN (BatchNormal (None, 64, 64, 16)   64          block_3_project[0][0]
__________________________________________________________________________________________________
block_3_add (Add)               (None, 64, 64, 16)   0           block_2_project_BN[0][0]
                                                                 block_3_project_BN[0][0]
__________________________________________________________________________________________________
block_4_expand (Conv2D)         (None, 64, 64, 96)   1536        block_3_add[0][0]
__________________________________________________________________________________________________
block_4_expand_BN (BatchNormali (None, 64, 64, 96)   384         block_4_expand[0][0]
__________________________________________________________________________________________________
block_4_expand_relu (ReLU)      (None, 64, 64, 96)   0           block_4_expand_BN[0][0]
__________________________________________________________________________________________________
block_4_depthwise (DepthwiseCon (None, 64, 64, 96)   864         block_4_expand_relu[0][0]
__________________________________________________________________________________________________
block_4_depthwise_BN (BatchNorm (None, 64, 64, 96)   384         block_4_depthwise[0][0]
__________________________________________________________________________________________________
block_4_depthwise_relu (ReLU)   (None, 64, 64, 96)   0           block_4_depthwise_BN[0][0]
__________________________________________________________________________________________________
block_4_project (Conv2D)        (None, 64, 64, 24)   2304        block_4_depthwise_relu[0][0]
__________________________________________________________________________________________________
block_4_project_BN (BatchNormal (None, 64, 64, 24)   96          block_4_project[0][0]
__________________________________________________________________________________________________
block_5_expand (Conv2D)         (None, 64, 64, 144)  3456        block_4_project_BN[0][0]
__________________________________________________________________________________________________
block_5_expand_BN (BatchNormali (None, 64, 64, 144)  576         block_5_expand[0][0]
__________________________________________________________________________________________________
block_5_expand_relu (ReLU)      (None, 64, 64, 144)  0           block_5_expand_BN[0][0]
__________________________________________________________________________________________________
block_5_pad (ZeroPadding2D)     (None, 65, 65, 144)  0           block_5_expand_relu[0][0]
__________________________________________________________________________________________________
block_5_depthwise (DepthwiseCon (None, 32, 32, 144)  1296        block_5_pad[0][0]
__________________________________________________________________________________________________
block_5_depthwise_BN (BatchNorm (None, 32, 32, 144)  576         block_5_depthwise[0][0]
__________________________________________________________________________________________________
block_5_depthwise_relu (ReLU)   (None, 32, 32, 144)  0           block_5_depthwise_BN[0][0]
__________________________________________________________________________________________________
block_5_project (Conv2D)        (None, 32, 32, 24)   3456        block_5_depthwise_relu[0][0]
__________________________________________________________________________________________________
block_5_project_BN (BatchNormal (None, 32, 32, 24)   96          block_5_project[0][0]
__________________________________________________________________________________________________
block_6_expand (Conv2D)         (None, 32, 32, 144)  3456        block_5_project_BN[0][0]
__________________________________________________________________________________________________
block_6_expand_BN (BatchNormali (None, 32, 32, 144)  576         block_6_expand[0][0]
__________________________________________________________________________________________________
block_6_expand_relu (ReLU)      (None, 32, 32, 144)  0           block_6_expand_BN[0][0]
__________________________________________________________________________________________________
block_6_depthwise (DepthwiseCon (None, 32, 32, 144)  1296        block_6_expand_relu[0][0]
__________________________________________________________________________________________________
block_6_depthwise_BN (BatchNorm (None, 32, 32, 144)  576         block_6_depthwise[0][0]
__________________________________________________________________________________________________
block_6_depthwise_relu (ReLU)   (None, 32, 32, 144)  0           block_6_depthwise_BN[0][0]
__________________________________________________________________________________________________
block_6_project (Conv2D)        (None, 32, 32, 24)   3456        block_6_depthwise_relu[0][0]
__________________________________________________________________________________________________
block_6_project_BN (BatchNormal (None, 32, 32, 24)   96          block_6_project[0][0]
__________________________________________________________________________________________________
block_6_add (Add)               (None, 32, 32, 24)   0           block_5_project_BN[0][0]
                                                                 block_6_project_BN[0][0]
__________________________________________________________________________________________________
block_7_expand (Conv2D)         (None, 32, 32, 144)  3456        block_6_add[0][0]
__________________________________________________________________________________________________
block_7_expand_BN (BatchNormali (None, 32, 32, 144)  576         block_7_expand[0][0]
__________________________________________________________________________________________________
block_7_expand_relu (ReLU)      (None, 32, 32, 144)  0           block_7_expand_BN[0][0]
__________________________________________________________________________________________________
block_7_depthwise (DepthwiseCon (None, 32, 32, 144)  1296        block_7_expand_relu[0][0]
__________________________________________________________________________________________________
block_7_depthwise_BN (BatchNorm (None, 32, 32, 144)  576         block_7_depthwise[0][0]
__________________________________________________________________________________________________
block_7_depthwise_relu (ReLU)   (None, 32, 32, 144)  0           block_7_depthwise_BN[0][0]
__________________________________________________________________________________________________
block_7_project (Conv2D)        (None, 32, 32, 32)   4608        block_7_depthwise_relu[0][0]
__________________________________________________________________________________________________
block_7_project_BN (BatchNormal (None, 32, 32, 32)   128         block_7_project[0][0]
__________________________________________________________________________________________________
block_8_expand (Conv2D)         (None, 32, 32, 192)  6144        block_7_project_BN[0][0]
__________________________________________________________________________________________________
block_8_expand_BN (BatchNormali (None, 32, 32, 192)  768         block_8_expand[0][0]
__________________________________________________________________________________________________
block_8_expand_relu (ReLU)      (None, 32, 32, 192)  0           block_8_expand_BN[0][0]
__________________________________________________________________________________________________
block_8_depthwise (DepthwiseCon (None, 32, 32, 192)  1728        block_8_expand_relu[0][0]
__________________________________________________________________________________________________
block_8_depthwise_BN (BatchNorm (None, 32, 32, 192)  768         block_8_depthwise[0][0]
__________________________________________________________________________________________________
block_8_depthwise_relu (ReLU)   (None, 32, 32, 192)  0           block_8_depthwise_BN[0][0]
__________________________________________________________________________________________________
block_8_project (Conv2D)        (None, 32, 32, 32)   6144        block_8_depthwise_relu[0][0]
__________________________________________________________________________________________________
block_8_project_BN (BatchNormal (None, 32, 32, 32)   128         block_8_project[0][0]
__________________________________________________________________________________________________
block_8_add (Add)               (None, 32, 32, 32)   0           block_7_project_BN[0][0]
                                                                 block_8_project_BN[0][0]
__________________________________________________________________________________________________
block_9_expand (Conv2D)         (None, 32, 32, 192)  6144        block_8_add[0][0]
__________________________________________________________________________________________________
block_9_expand_BN (BatchNormali (None, 32, 32, 192)  768         block_9_expand[0][0]
__________________________________________________________________________________________________
block_9_expand_relu (ReLU)      (None, 32, 32, 192)  0           block_9_expand_BN[0][0]
__________________________________________________________________________________________________
block_9_pad (ZeroPadding2D)     (None, 33, 33, 192)  0           block_9_expand_relu[0][0]
__________________________________________________________________________________________________
block_9_depthwise (DepthwiseCon (None, 16, 16, 192)  1728        block_9_pad[0][0]
__________________________________________________________________________________________________
block_9_depthwise_BN (BatchNorm (None, 16, 16, 192)  768         block_9_depthwise[0][0]
__________________________________________________________________________________________________
block_9_depthwise_relu (ReLU)   (None, 16, 16, 192)  0           block_9_depthwise_BN[0][0]
__________________________________________________________________________________________________
block_9_project (Conv2D)        (None, 16, 16, 32)   6144        block_9_depthwise_relu[0][0]
__________________________________________________________________________________________________
block_9_project_BN (BatchNormal (None, 16, 16, 32)   128         block_9_project[0][0]
__________________________________________________________________________________________________
block_10_expand (Conv2D)        (None, 16, 16, 192)  6144        block_9_project_BN[0][0]
__________________________________________________________________________________________________
block_10_expand_BN (BatchNormal (None, 16, 16, 192)  768         block_10_expand[0][0]
__________________________________________________________________________________________________
block_10_expand_relu (ReLU)     (None, 16, 16, 192)  0           block_10_expand_BN[0][0]
__________________________________________________________________________________________________
block_10_depthwise (DepthwiseCo (None, 16, 16, 192)  1728        block_10_expand_relu[0][0]
__________________________________________________________________________________________________
block_10_depthwise_BN (BatchNor (None, 16, 16, 192)  768         block_10_depthwise[0][0]
__________________________________________________________________________________________________
block_10_depthwise_relu (ReLU)  (None, 16, 16, 192)  0           block_10_depthwise_BN[0][0]
__________________________________________________________________________________________________
block_10_project (Conv2D)       (None, 16, 16, 32)   6144        block_10_depthwise_relu[0][0]
__________________________________________________________________________________________________
block_10_project_BN (BatchNorma (None, 16, 16, 32)   128         block_10_project[0][0]
__________________________________________________________________________________________________
block_10_add (Add)              (None, 16, 16, 32)   0           block_9_project_BN[0][0]
                                                                 block_10_project_BN[0][0]
__________________________________________________________________________________________________
block_11_expand (Conv2D)        (None, 16, 16, 192)  6144        block_10_add[0][0]
__________________________________________________________________________________________________
block_11_expand_BN (BatchNormal (None, 16, 16, 192)  768         block_11_expand[0][0]
__________________________________________________________________________________________________
block_11_expand_relu (ReLU)     (None, 16, 16, 192)  0           block_11_expand_BN[0][0]
__________________________________________________________________________________________________
block_11_pad (ZeroPadding2D)    (None, 17, 17, 192)  0           block_11_expand_relu[0][0]
__________________________________________________________________________________________________
block_11_depthwise (DepthwiseCo (None, 8, 8, 192)    1728        block_11_pad[0][0]
__________________________________________________________________________________________________
block_11_depthwise_BN (BatchNor (None, 8, 8, 192)    768         block_11_depthwise[0][0]
__________________________________________________________________________________________________
block_11_depthwise_relu (ReLU)  (None, 8, 8, 192)    0           block_11_depthwise_BN[0][0]
__________________________________________________________________________________________________
block_11_project (Conv2D)       (None, 8, 8, 32)     6144        block_11_depthwise_relu[0][0]
__________________________________________________________________________________________________
block_11_project_BN (BatchNorma (None, 8, 8, 32)     128         block_11_project[0][0]
__________________________________________________________________________________________________
block_12_expand (Conv2D)        (None, 8, 8, 192)    6144        block_11_project_BN[0][0]
__________________________________________________________________________________________________
block_12_expand_BN (BatchNormal (None, 8, 8, 192)    768         block_12_expand[0][0]
__________________________________________________________________________________________________
block_12_expand_relu (ReLU)     (None, 8, 8, 192)    0           block_12_expand_BN[0][0]
__________________________________________________________________________________________________
block_12_depthwise (DepthwiseCo (None, 8, 8, 192)    1728        block_12_expand_relu[0][0]
__________________________________________________________________________________________________
block_12_depthwise_BN (BatchNor (None, 8, 8, 192)    768         block_12_depthwise[0][0]
__________________________________________________________________________________________________
block_12_depthwise_relu (ReLU)  (None, 8, 8, 192)    0           block_12_depthwise_BN[0][0]
__________________________________________________________________________________________________
block_12_project (Conv2D)       (None, 8, 8, 32)     6144        block_12_depthwise_relu[0][0]
__________________________________________________________________________________________________
block_12_project_BN (BatchNorma (None, 8, 8, 32)     128         block_12_project[0][0]
__________________________________________________________________________________________________
block_12_add (Add)              (None, 8, 8, 32)     0           block_11_project_BN[0][0]
                                                                 block_12_project_BN[0][0]
__________________________________________________________________________________________________
block_13_expand (Conv2D)        (None, 8, 8, 192)    6144        block_12_add[0][0]
__________________________________________________________________________________________________
block_13_expand_BN (BatchNormal (None, 8, 8, 192)    768         block_13_expand[0][0]
__________________________________________________________________________________________________
block_13_expand_relu (ReLU)     (None, 8, 8, 192)    0           block_13_expand_BN[0][0]
__________________________________________________________________________________________________
block_13_pad (ZeroPadding2D)    (None, 9, 9, 192)    0           block_13_expand_relu[0][0]
__________________________________________________________________________________________________
block_13_depthwise (DepthwiseCo (None, 4, 4, 192)    1728        block_13_pad[0][0]
__________________________________________________________________________________________________
block_13_depthwise_BN (BatchNor (None, 4, 4, 192)    768         block_13_depthwise[0][0]
__________________________________________________________________________________________________
block_13_depthwise_relu (ReLU)  (None, 4, 4, 192)    0           block_13_depthwise_BN[0][0]
__________________________________________________________________________________________________
block_13_project (Conv2D)       (None, 4, 4, 32)     6144        block_13_depthwise_relu[0][0]
__________________________________________________________________________________________________
block_13_project_BN (BatchNorma (None, 4, 4, 32)     128         block_13_project[0][0]
__________________________________________________________________________________________________
block_14_expand (Conv2D)        (None, 4, 4, 192)    6144        block_13_project_BN[0][0]
__________________________________________________________________________________________________
block_14_expand_BN (BatchNormal (None, 4, 4, 192)    768         block_14_expand[0][0]
__________________________________________________________________________________________________
block_14_expand_relu (ReLU)     (None, 4, 4, 192)    0           block_14_expand_BN[0][0]
__________________________________________________________________________________________________
block_14_depthwise (DepthwiseCo (None, 4, 4, 192)    1728        block_14_expand_relu[0][0]
__________________________________________________________________________________________________
block_14_depthwise_BN (BatchNor (None, 4, 4, 192)    768         block_14_depthwise[0][0]
__________________________________________________________________________________________________
block_14_depthwise_relu (ReLU)  (None, 4, 4, 192)    0           block_14_depthwise_BN[0][0]
__________________________________________________________________________________________________
block_14_project (Conv2D)       (None, 4, 4, 32)     6144        block_14_depthwise_relu[0][0]
__________________________________________________________________________________________________
block_14_project_BN (BatchNorma (None, 4, 4, 32)     128         block_14_project[0][0]
__________________________________________________________________________________________________
block_14_add (Add)              (None, 4, 4, 32)     0           block_13_project_BN[0][0]
                                                                 block_14_project_BN[0][0]
__________________________________________________________________________________________________
conv_dw_200 (DepthwiseConv2D)   (None, 32, 32, 32)   288         block_8_add[0][0]
__________________________________________________________________________________________________
conv_dw_201 (DepthwiseConv2D)   (None, 16, 16, 32)   288         block_10_add[0][0]
__________________________________________________________________________________________________
conv_dw_202 (DepthwiseConv2D)   (None, 8, 8, 32)     288         block_12_add[0][0]
__________________________________________________________________________________________________
conv_dw_203 (DepthwiseConv2D)   (None, 4, 4, 32)     288         block_14_add[0][0]
__________________________________________________________________________________________________
conv_dw_100 (DepthwiseConv2D)   (None, 32, 32, 32)   288         block_8_add[0][0]
__________________________________________________________________________________________________
conv_dw_101 (DepthwiseConv2D)   (None, 16, 16, 32)   288         block_10_add[0][0]
__________________________________________________________________________________________________
conv_dw_102 (DepthwiseConv2D)   (None, 8, 8, 32)     288         block_12_add[0][0]
__________________________________________________________________________________________________
conv_dw_103 (DepthwiseConv2D)   (None, 4, 4, 32)     288         block_14_add[0][0]
__________________________________________________________________________________________________
conv_dw_200_bn (BatchNormalizat (None, 32, 32, 32)   128         conv_dw_200[0][0]
__________________________________________________________________________________________________
conv_dw_201_bn (BatchNormalizat (None, 16, 16, 32)   128         conv_dw_201[0][0]
__________________________________________________________________________________________________
conv_dw_202_bn (BatchNormalizat (None, 8, 8, 32)     128         conv_dw_202[0][0]
__________________________________________________________________________________________________
conv_dw_203_bn (BatchNormalizat (None, 4, 4, 32)     128         conv_dw_203[0][0]
__________________________________________________________________________________________________
conv_dw_100_bn (BatchNormalizat (None, 32, 32, 32)   128         conv_dw_100[0][0]
__________________________________________________________________________________________________
conv_dw_101_bn (BatchNormalizat (None, 16, 16, 32)   128         conv_dw_101[0][0]
__________________________________________________________________________________________________
conv_dw_102_bn (BatchNormalizat (None, 8, 8, 32)     128         conv_dw_102[0][0]
__________________________________________________________________________________________________
conv_dw_103_bn (BatchNormalizat (None, 4, 4, 32)     128         conv_dw_103[0][0]
__________________________________________________________________________________________________
conv_dw_200_relu6 (Activation)  (None, 32, 32, 32)   0           conv_dw_200_bn[0][0]
__________________________________________________________________________________________________
conv_dw_201_relu6 (Activation)  (None, 16, 16, 32)   0           conv_dw_201_bn[0][0]
__________________________________________________________________________________________________
conv_dw_202_relu6 (Activation)  (None, 8, 8, 32)     0           conv_dw_202_bn[0][0]
__________________________________________________________________________________________________
conv_dw_203_relu6 (Activation)  (None, 4, 4, 32)     0           conv_dw_203_bn[0][0]
__________________________________________________________________________________________________
conv_dw_100_relu6 (Activation)  (None, 32, 32, 32)   0           conv_dw_100_bn[0][0]
__________________________________________________________________________________________________
conv_dw_101_relu6 (Activation)  (None, 16, 16, 32)   0           conv_dw_101_bn[0][0]
__________________________________________________________________________________________________
conv_dw_102_relu6 (Activation)  (None, 8, 8, 32)     0           conv_dw_102_bn[0][0]
__________________________________________________________________________________________________
conv_dw_103_relu6 (Activation)  (None, 4, 4, 32)     0           conv_dw_103_bn[0][0]
__________________________________________________________________________________________________
conv_pw_200 (Conv2D)            (None, 32, 32, 12)   384         conv_dw_200_relu6[0][0]
__________________________________________________________________________________________________
conv_pw_201 (Conv2D)            (None, 16, 16, 12)   384         conv_dw_201_relu6[0][0]
__________________________________________________________________________________________________
conv_pw_202 (Conv2D)            (None, 8, 8, 12)     384         conv_dw_202_relu6[0][0]
__________________________________________________________________________________________________
conv_pw_203 (Conv2D)            (None, 4, 4, 12)     384         conv_dw_203_relu6[0][0]
__________________________________________________________________________________________________
conv_pw_100 (Conv2D)            (None, 32, 32, 24)   768         conv_dw_100_relu6[0][0]
__________________________________________________________________________________________________
conv_pw_101 (Conv2D)            (None, 16, 16, 24)   768         conv_dw_101_relu6[0][0]
__________________________________________________________________________________________________
conv_pw_102 (Conv2D)            (None, 8, 8, 24)     768         conv_dw_102_relu6[0][0]
__________________________________________________________________________________________________
conv_pw_103 (Conv2D)            (None, 4, 4, 24)     768         conv_dw_103_relu6[0][0]
__________________________________________________________________________________________________
conv_pw_200_bn (BatchNormalizat (None, 32, 32, 12)   48          conv_pw_200[0][0]
__________________________________________________________________________________________________
conv_pw_201_bn (BatchNormalizat (None, 16, 16, 12)   48          conv_pw_201[0][0]
__________________________________________________________________________________________________
conv_pw_202_bn (BatchNormalizat (None, 8, 8, 12)     48          conv_pw_202[0][0]
__________________________________________________________________________________________________
conv_pw_203_bn (BatchNormalizat (None, 4, 4, 12)     48          conv_pw_203[0][0]
__________________________________________________________________________________________________
conv_pw_100_bn (BatchNormalizat (None, 32, 32, 24)   96          conv_pw_100[0][0]
__________________________________________________________________________________________________
conv_pw_101_bn (BatchNormalizat (None, 16, 16, 24)   96          conv_pw_101[0][0]
__________________________________________________________________________________________________
conv_pw_102_bn (BatchNormalizat (None, 8, 8, 24)     96          conv_pw_102[0][0]
__________________________________________________________________________________________________
conv_pw_103_bn (BatchNormalizat (None, 4, 4, 24)     96          conv_pw_103[0][0]
__________________________________________________________________________________________________
conv_pw_200_relu6 (Activation)  (None, 32, 32, 12)   0           conv_pw_200_bn[0][0]
__________________________________________________________________________________________________
conv_pw_201_relu6 (Activation)  (None, 16, 16, 12)   0           conv_pw_201_bn[0][0]
__________________________________________________________________________________________________
conv_pw_202_relu6 (Activation)  (None, 8, 8, 12)     0           conv_pw_202_bn[0][0]
__________________________________________________________________________________________________
conv_pw_203_relu6 (Activation)  (None, 4, 4, 12)     0           conv_pw_203_bn[0][0]
__________________________________________________________________________________________________
conv_pw_100_relu6 (Activation)  (None, 32, 32, 24)   0           conv_pw_100_bn[0][0]
__________________________________________________________________________________________________
conv_pw_101_relu6 (Activation)  (None, 16, 16, 24)   0           conv_pw_101_bn[0][0]
__________________________________________________________________________________________________
conv_pw_102_relu6 (Activation)  (None, 8, 8, 24)     0           conv_pw_102_bn[0][0]
__________________________________________________________________________________________________
conv_pw_103_relu6 (Activation)  (None, 4, 4, 24)     0           conv_pw_103_bn[0][0]
__________________________________________________________________________________________________
Reshape_conf0 (Reshape)         (None, 6144, 2)      0           conv_pw_200_relu6[0][0]
__________________________________________________________________________________________________
Reshape_conf1 (Reshape)         (None, 1536, 2)      0           conv_pw_201_relu6[0][0]
__________________________________________________________________________________________________
Reshape_conf2 (Reshape)         (None, 384, 2)       0           conv_pw_202_relu6[0][0]
__________________________________________________________________________________________________
Reshape_conf3 (Reshape)         (None, 96, 2)        0           conv_pw_203_relu6[0][0]
__________________________________________________________________________________________________
AnchorBoxes_0 (AnchorBoxes)     (None, 32, 32, 6, 8) 0           conv_pw_100_relu6[0][0]
__________________________________________________________________________________________________
AnchorBoxes_1 (AnchorBoxes)     (None, 16, 16, 6, 8) 0           conv_pw_101_relu6[0][0]
__________________________________________________________________________________________________
AnchorBoxes_2 (AnchorBoxes)     (None, 8, 8, 6, 8)   0           conv_pw_102_relu6[0][0]
__________________________________________________________________________________________________
AnchorBoxes_3 (AnchorBoxes)     (None, 4, 4, 6, 8)   0           conv_pw_103_relu6[0][0]
__________________________________________________________________________________________________
Concatenate_conf (Concatenate)  (None, 8160, 2)      0           Reshape_conf0[0][0]
                                                                 Reshape_conf1[0][0]
                                                                 Reshape_conf2[0][0]
                                                                 Reshape_conf3[0][0]
__________________________________________________________________________________________________
Reshape_loc0 (Reshape)          (None, 6144, 4)      0           conv_pw_100_relu6[0][0]
__________________________________________________________________________________________________
Reshape_loc1 (Reshape)          (None, 1536, 4)      0           conv_pw_101_relu6[0][0]
__________________________________________________________________________________________________
Reshape_loc2 (Reshape)          (None, 384, 4)       0           conv_pw_102_relu6[0][0]
__________________________________________________________________________________________________
Reshape_loc3 (Reshape)          (None, 96, 4)        0           conv_pw_103_relu6[0][0]
__________________________________________________________________________________________________
Reshape_AnchorBoxes_0 (Reshape) (None, 6144, 8)      0           AnchorBoxes_0[0][0]
__________________________________________________________________________________________________
Reshape_AnchorBoxes_1 (Reshape) (None, 1536, 8)      0           AnchorBoxes_1[0][0]
__________________________________________________________________________________________________
Reshape_AnchorBoxes_2 (Reshape) (None, 384, 8)       0           AnchorBoxes_2[0][0]
__________________________________________________________________________________________________
Reshape_AnchorBoxes_3 (Reshape) (None, 96, 8)        0           AnchorBoxes_3[0][0]
__________________________________________________________________________________________________
Softmax_conf (Softmax)          (None, 8160, 2)      0           Concatenate_conf[0][0]
__________________________________________________________________________________________________
Concatenate_loc (Concatenate)   (None, 8160, 4)      0           Reshape_loc0[0][0]
                                                                 Reshape_loc1[0][0]
                                                                 Reshape_loc2[0][0]
                                                                 Reshape_loc3[0][0]
__________________________________________________________________________________________________
Concatenate_ab (Concatenate)    (None, 8160, 8)      0           Reshape_AnchorBoxes_0[0][0]
                                                                 Reshape_AnchorBoxes_1[0][0]
                                                                 Reshape_AnchorBoxes_2[0][0]
                                                                 Reshape_AnchorBoxes_3[0][0]
__________________________________________________________________________________________________
Concatenate_predict (Concatenat (None, 8160, 14)     0           Softmax_conf[0][0]
                                                                 Concatenate_loc[0][0]
                                                                 Concatenate_ab[0][0]
==================================================================================================
Total params: 167,208
Trainable params: 156,984
Non-trainable params: 10,224
__________________________________________________________________________________________________
