weights: checkpoint/weights-22-0.2275.hdf5
__________________________________________________________________________________________________
Layer (type)                    Output Shape         Param #     Connected to
==================================================================================================
Input (InputLayer)              (None, 160, 160, 3)  0
__________________________________________________________________________________________________
input_mean_normalization (Lambd (None, 160, 160, 3)  0           Input[0][0]
__________________________________________________________________________________________________
input_stddev_normalization (Lam (None, 160, 160, 3)  0           input_mean_normalization[0][0]
__________________________________________________________________________________________________
conv_0 (Conv2D)                 (None, 80, 80, 16)   1200        input_stddev_normalization[0][0]
__________________________________________________________________________________________________
conv_0_bn (BatchNormalization)  (None, 80, 80, 16)   64          conv_0[0][0]
__________________________________________________________________________________________________
conv_0_act (Activation)         (None, 80, 80, 16)   0           conv_0_bn[0][0]
__________________________________________________________________________________________________
block_0_expand (Conv2D)         (None, 80, 80, 96)   1536        conv_0_act[0][0]
__________________________________________________________________________________________________
block_0_expand_BN (BatchNormali (None, 80, 80, 96)   384         block_0_expand[0][0]
__________________________________________________________________________________________________
block_0_expand_relu (ReLU)      (None, 80, 80, 96)   0           block_0_expand_BN[0][0]
__________________________________________________________________________________________________
block_0_depthwise (DepthwiseCon (None, 80, 80, 96)   864         block_0_expand_relu[0][0]
__________________________________________________________________________________________________
block_0_depthwise_BN (BatchNorm (None, 80, 80, 96)   384         block_0_depthwise[0][0]
__________________________________________________________________________________________________
block_0_depthwise_relu (ReLU)   (None, 80, 80, 96)   0           block_0_depthwise_BN[0][0]
__________________________________________________________________________________________________
block_0_project (Conv2D)        (None, 80, 80, 16)   1536        block_0_depthwise_relu[0][0]
__________________________________________________________________________________________________
block_0_project_BN (BatchNormal (None, 80, 80, 16)   64          block_0_project[0][0]
__________________________________________________________________________________________________
block_0_add (Add)               (None, 80, 80, 16)   0           conv_0_act[0][0]
                                                                 block_0_project_BN[0][0]
__________________________________________________________________________________________________
block_1_expand (Conv2D)         (None, 80, 80, 96)   1536        block_0_add[0][0]
__________________________________________________________________________________________________
block_1_expand_BN (BatchNormali (None, 80, 80, 96)   384         block_1_expand[0][0]
__________________________________________________________________________________________________
block_1_expand_relu (ReLU)      (None, 80, 80, 96)   0           block_1_expand_BN[0][0]
__________________________________________________________________________________________________
block_1_depthwise (DepthwiseCon (None, 40, 40, 96)   864         block_1_expand_relu[0][0]
__________________________________________________________________________________________________
block_1_depthwise_BN (BatchNorm (None, 40, 40, 96)   384         block_1_depthwise[0][0]
__________________________________________________________________________________________________
block_1_depthwise_relu (ReLU)   (None, 40, 40, 96)   0           block_1_depthwise_BN[0][0]
__________________________________________________________________________________________________
block_1_project (Conv2D)        (None, 40, 40, 24)   2304        block_1_depthwise_relu[0][0]
__________________________________________________________________________________________________
block_1_project_BN (BatchNormal (None, 40, 40, 24)   96          block_1_project[0][0]
__________________________________________________________________________________________________
block_2_expand (Conv2D)         (None, 40, 40, 144)  3456        block_1_project_BN[0][0]
__________________________________________________________________________________________________
block_2_expand_BN (BatchNormali (None, 40, 40, 144)  576         block_2_expand[0][0]
__________________________________________________________________________________________________
block_2_expand_relu (ReLU)      (None, 40, 40, 144)  0           block_2_expand_BN[0][0]
__________________________________________________________________________________________________
block_2_depthwise (DepthwiseCon (None, 40, 40, 144)  1296        block_2_expand_relu[0][0]
__________________________________________________________________________________________________
block_2_depthwise_BN (BatchNorm (None, 40, 40, 144)  576         block_2_depthwise[0][0]
__________________________________________________________________________________________________
block_2_depthwise_relu (ReLU)   (None, 40, 40, 144)  0           block_2_depthwise_BN[0][0]
__________________________________________________________________________________________________
block_2_project (Conv2D)        (None, 40, 40, 24)   3456        block_2_depthwise_relu[0][0]
__________________________________________________________________________________________________
block_2_project_BN (BatchNormal (None, 40, 40, 24)   96          block_2_project[0][0]
__________________________________________________________________________________________________
block_2_add (Add)               (None, 40, 40, 24)   0           block_1_project_BN[0][0]
                                                                 block_2_project_BN[0][0]
__________________________________________________________________________________________________
block_3_expand (Conv2D)         (None, 40, 40, 144)  3456        block_2_add[0][0]
__________________________________________________________________________________________________
block_3_expand_BN (BatchNormali (None, 40, 40, 144)  576         block_3_expand[0][0]
__________________________________________________________________________________________________
block_3_expand_relu (ReLU)      (None, 40, 40, 144)  0           block_3_expand_BN[0][0]
__________________________________________________________________________________________________
block_3_depthwise (DepthwiseCon (None, 20, 20, 144)  1296        block_3_expand_relu[0][0]
__________________________________________________________________________________________________
block_3_depthwise_BN (BatchNorm (None, 20, 20, 144)  576         block_3_depthwise[0][0]
__________________________________________________________________________________________________
block_3_depthwise_relu (ReLU)   (None, 20, 20, 144)  0           block_3_depthwise_BN[0][0]
__________________________________________________________________________________________________
block_3_project (Conv2D)        (None, 20, 20, 32)   4608        block_3_depthwise_relu[0][0]
__________________________________________________________________________________________________
block_3_project_BN (BatchNormal (None, 20, 20, 32)   128         block_3_project[0][0]
__________________________________________________________________________________________________
block_4_expand (Conv2D)         (None, 20, 20, 192)  6144        block_3_project_BN[0][0]
__________________________________________________________________________________________________
block_4_expand_BN (BatchNormali (None, 20, 20, 192)  768         block_4_expand[0][0]
__________________________________________________________________________________________________
block_4_expand_relu (ReLU)      (None, 20, 20, 192)  0           block_4_expand_BN[0][0]
__________________________________________________________________________________________________
block_4_depthwise (DepthwiseCon (None, 20, 20, 192)  1728        block_4_expand_relu[0][0]
__________________________________________________________________________________________________
block_4_depthwise_BN (BatchNorm (None, 20, 20, 192)  768         block_4_depthwise[0][0]
__________________________________________________________________________________________________
block_4_depthwise_relu (ReLU)   (None, 20, 20, 192)  0           block_4_depthwise_BN[0][0]
__________________________________________________________________________________________________
block_4_project (Conv2D)        (None, 20, 20, 32)   6144        block_4_depthwise_relu[0][0]
__________________________________________________________________________________________________
block_4_project_BN (BatchNormal (None, 20, 20, 32)   128         block_4_project[0][0]
__________________________________________________________________________________________________
block_4_add (Add)               (None, 20, 20, 32)   0           block_3_project_BN[0][0]
                                                                 block_4_project_BN[0][0]
__________________________________________________________________________________________________
block_5_expand (Conv2D)         (None, 20, 20, 192)  6144        block_4_add[0][0]
__________________________________________________________________________________________________
block_5_expand_BN (BatchNormali (None, 20, 20, 192)  768         block_5_expand[0][0]
__________________________________________________________________________________________________
block_5_expand_relu (ReLU)      (None, 20, 20, 192)  0           block_5_expand_BN[0][0]
__________________________________________________________________________________________________
block_5_depthwise (DepthwiseCon (None, 10, 10, 192)  1728        block_5_expand_relu[0][0]
__________________________________________________________________________________________________
block_5_depthwise_BN (BatchNorm (None, 10, 10, 192)  768         block_5_depthwise[0][0]
__________________________________________________________________________________________________
block_5_depthwise_relu (ReLU)   (None, 10, 10, 192)  0           block_5_depthwise_BN[0][0]
__________________________________________________________________________________________________
block_5_project (Conv2D)        (None, 10, 10, 24)   4608        block_5_depthwise_relu[0][0]
__________________________________________________________________________________________________
block_5_project_BN (BatchNormal (None, 10, 10, 24)   96          block_5_project[0][0]
__________________________________________________________________________________________________
block_6_expand (Conv2D)         (None, 10, 10, 144)  3456        block_5_project_BN[0][0]
__________________________________________________________________________________________________
block_6_expand_BN (BatchNormali (None, 10, 10, 144)  576         block_6_expand[0][0]
__________________________________________________________________________________________________
block_6_expand_relu (ReLU)      (None, 10, 10, 144)  0           block_6_expand_BN[0][0]
__________________________________________________________________________________________________
block_6_depthwise (DepthwiseCon (None, 10, 10, 144)  1296        block_6_expand_relu[0][0]
__________________________________________________________________________________________________
block_6_depthwise_BN (BatchNorm (None, 10, 10, 144)  576         block_6_depthwise[0][0]
__________________________________________________________________________________________________
block_6_depthwise_relu (ReLU)   (None, 10, 10, 144)  0           block_6_depthwise_BN[0][0]
__________________________________________________________________________________________________
block_6_project (Conv2D)        (None, 10, 10, 24)   3456        block_6_depthwise_relu[0][0]
__________________________________________________________________________________________________
block_6_project_BN (BatchNormal (None, 10, 10, 24)   96          block_6_project[0][0]
__________________________________________________________________________________________________
block_6_add (Add)               (None, 10, 10, 24)   0           block_5_project_BN[0][0]
                                                                 block_6_project_BN[0][0]
__________________________________________________________________________________________________
block_7_expand (Conv2D)         (None, 10, 10, 144)  3456        block_6_add[0][0]
__________________________________________________________________________________________________
block_7_expand_BN (BatchNormali (None, 10, 10, 144)  576         block_7_expand[0][0]
__________________________________________________________________________________________________
block_7_expand_relu (ReLU)      (None, 10, 10, 144)  0           block_7_expand_BN[0][0]
__________________________________________________________________________________________________
block_7_depthwise (DepthwiseCon (None, 5, 5, 144)    1296        block_7_expand_relu[0][0]
__________________________________________________________________________________________________
block_7_depthwise_BN (BatchNorm (None, 5, 5, 144)    576         block_7_depthwise[0][0]
__________________________________________________________________________________________________
block_7_depthwise_relu (ReLU)   (None, 5, 5, 144)    0           block_7_depthwise_BN[0][0]
__________________________________________________________________________________________________
block_7_project (Conv2D)        (None, 5, 5, 16)     2304        block_7_depthwise_relu[0][0]
__________________________________________________________________________________________________
block_7_project_BN (BatchNormal (None, 5, 5, 16)     64          block_7_project[0][0]
__________________________________________________________________________________________________
block_8_expand (Conv2D)         (None, 5, 5, 96)     1536        block_7_project_BN[0][0]
__________________________________________________________________________________________________
block_8_expand_BN (BatchNormali (None, 5, 5, 96)     384         block_8_expand[0][0]
__________________________________________________________________________________________________
block_8_expand_relu (ReLU)      (None, 5, 5, 96)     0           block_8_expand_BN[0][0]
__________________________________________________________________________________________________
block_8_depthwise (DepthwiseCon (None, 5, 5, 96)     864         block_8_expand_relu[0][0]
__________________________________________________________________________________________________
block_8_depthwise_BN (BatchNorm (None, 5, 5, 96)     384         block_8_depthwise[0][0]
__________________________________________________________________________________________________
block_8_depthwise_relu (ReLU)   (None, 5, 5, 96)     0           block_8_depthwise_BN[0][0]
__________________________________________________________________________________________________
block_8_project (Conv2D)        (None, 5, 5, 16)     1536        block_8_depthwise_relu[0][0]
__________________________________________________________________________________________________
block_8_project_BN (BatchNormal (None, 5, 5, 16)     64          block_8_project[0][0]
__________________________________________________________________________________________________
block_8_add (Add)               (None, 5, 5, 16)     0           block_7_project_BN[0][0]
                                                                 block_8_project_BN[0][0]
__________________________________________________________________________________________________
conf0 (Conv2D)                  (None, 20, 20, 12)   3468        block_4_add[0][0]
__________________________________________________________________________________________________
conf1 (Conv2D)                  (None, 10, 10, 12)   2604        block_6_add[0][0]
__________________________________________________________________________________________________
conf2 (Conv2D)                  (None, 5, 5, 12)     1740        block_8_add[0][0]
__________________________________________________________________________________________________
loc0 (Conv2D)                   (None, 20, 20, 24)   6936        block_4_add[0][0]
__________________________________________________________________________________________________
loc1 (Conv2D)                   (None, 10, 10, 24)   5208        block_6_add[0][0]
__________________________________________________________________________________________________
loc2 (Conv2D)                   (None, 5, 5, 24)     3480        block_8_add[0][0]
__________________________________________________________________________________________________
Reshape_conf0 (Reshape)         (None, 2400, 2)      0           conf0[0][0]
__________________________________________________________________________________________________
Reshape_conf1 (Reshape)         (None, 600, 2)       0           conf1[0][0]
__________________________________________________________________________________________________
Reshape_conf2 (Reshape)         (None, 150, 2)       0           conf2[0][0]
__________________________________________________________________________________________________
AnchorBoxes_0 (AnchorBoxes)     (None, 20, 20, 6, 8) 0           loc0[0][0]
__________________________________________________________________________________________________
AnchorBoxes_1 (AnchorBoxes)     (None, 10, 10, 6, 8) 0           loc1[0][0]
__________________________________________________________________________________________________
AnchorBoxes_2 (AnchorBoxes)     (None, 5, 5, 6, 8)   0           loc2[0][0]
__________________________________________________________________________________________________
Concatenate_conf (Concatenate)  (None, 3150, 2)      0           Reshape_conf0[0][0]
                                                                 Reshape_conf1[0][0]
                                                                 Reshape_conf2[0][0]
__________________________________________________________________________________________________
Reshape_loc0 (Reshape)          (None, 2400, 4)      0           loc0[0][0]
__________________________________________________________________________________________________
Reshape_loc1 (Reshape)          (None, 600, 4)       0           loc1[0][0]
__________________________________________________________________________________________________
Reshape_loc2 (Reshape)          (None, 150, 4)       0           loc2[0][0]
__________________________________________________________________________________________________
Reshape_AB0 (Reshape)           (None, 2400, 8)      0           AnchorBoxes_0[0][0]
__________________________________________________________________________________________________
Reshape_AB1 (Reshape)           (None, 600, 8)       0           AnchorBoxes_1[0][0]
__________________________________________________________________________________________________
Reshape_AB2 (Reshape)           (None, 150, 8)       0           AnchorBoxes_2[0][0]
__________________________________________________________________________________________________
Softmax_conf (Softmax)          (None, 3150, 2)      0           Concatenate_conf[0][0]
__________________________________________________________________________________________________
Concatenate_loc (Concatenate)   (None, 3150, 4)      0           Reshape_loc0[0][0]
                                                                 Reshape_loc1[0][0]
                                                                 Reshape_loc2[0][0]
__________________________________________________________________________________________________
Concatenate_ab (Concatenate)    (None, 3150, 8)      0           Reshape_AB0[0][0]
                                                                 Reshape_AB1[0][0]
                                                                 Reshape_AB2[0][0]
__________________________________________________________________________________________________
Concatenate_predict (Concatenat (None, 3150, 14)     0           Softmax_conf[0][0]
                                                                 Concatenate_loc[0][0]
                                                                 Concatenate_ab[0][0]
==================================================================================================
Total params: 107,420
Trainable params: 101,980
Non-trainable params: 5,440
__________________________________________________________________________________________________
