weights: checkpoint/weights-04-0.2755.hdf5
__________________________________________________________________________________________________
Layer (type)                    Output Shape         Param #     Connected to
==================================================================================================
input_3 (InputLayer)            (None, 224, 224, 3)  0
__________________________________________________________________________________________________
identity_layer (Lambda)         (None, 224, 224, 3)  0           input_3[0][0]
__________________________________________________________________________________________________
input_mean_normalization (Lambd (None, 224, 224, 3)  0           identity_layer[0][0]
__________________________________________________________________________________________________
input_stddev_normalization (Lam (None, 224, 224, 3)  0           input_mean_normalization[0][0]
__________________________________________________________________________________________________
conv_0 (Conv2D)                 (None, 112, 112, 16) 1200        input_stddev_normalization[0][0]
__________________________________________________________________________________________________
conv_0_bn (BatchNormalization)  (None, 112, 112, 16) 64          conv_0[0][0]
__________________________________________________________________________________________________
conv_0_relu (Activation)        (None, 112, 112, 16) 0           conv_0_bn[0][0]
__________________________________________________________________________________________________
block_0_expand (Conv2D)         (None, 112, 112, 96) 1536        conv_0_relu[0][0]
__________________________________________________________________________________________________
block_0_expand_BN (BatchNormali (None, 112, 112, 96) 384         block_0_expand[0][0]
__________________________________________________________________________________________________
block_0_expand_relu (ReLU)      (None, 112, 112, 96) 0           block_0_expand_BN[0][0]
__________________________________________________________________________________________________
block_0_depthwise (DepthwiseCon (None, 112, 112, 96) 864         block_0_expand_relu[0][0]
__________________________________________________________________________________________________
block_0_depthwise_BN (BatchNorm (None, 112, 112, 96) 384         block_0_depthwise[0][0]
__________________________________________________________________________________________________
block_0_depthwise_relu (ReLU)   (None, 112, 112, 96) 0           block_0_depthwise_BN[0][0]
__________________________________________________________________________________________________
block_0_project (Conv2D)        (None, 112, 112, 16) 1536        block_0_depthwise_relu[0][0]
__________________________________________________________________________________________________
block_0_project_BN (BatchNormal (None, 112, 112, 16) 64          block_0_project[0][0]
__________________________________________________________________________________________________
block_0_add (Add)               (None, 112, 112, 16) 0           conv_0_relu[0][0]
                                                                 block_0_project_BN[0][0]
__________________________________________________________________________________________________
block_1_expand (Conv2D)         (None, 112, 112, 96) 1536        block_0_add[0][0]
__________________________________________________________________________________________________
block_1_expand_BN (BatchNormali (None, 112, 112, 96) 384         block_1_expand[0][0]
__________________________________________________________________________________________________
block_1_expand_relu (ReLU)      (None, 112, 112, 96) 0           block_1_expand_BN[0][0]
__________________________________________________________________________________________________
block_1_depthwise (DepthwiseCon (None, 112, 112, 96) 864         block_1_expand_relu[0][0]
__________________________________________________________________________________________________
block_1_depthwise_BN (BatchNorm (None, 112, 112, 96) 384         block_1_depthwise[0][0]
__________________________________________________________________________________________________
block_1_depthwise_relu (ReLU)   (None, 112, 112, 96) 0           block_1_depthwise_BN[0][0]
__________________________________________________________________________________________________
block_1_project (Conv2D)        (None, 112, 112, 16) 1536        block_1_depthwise_relu[0][0]
__________________________________________________________________________________________________
block_1_project_BN (BatchNormal (None, 112, 112, 16) 64          block_1_project[0][0]
__________________________________________________________________________________________________
block_1_add (Add)               (None, 112, 112, 16) 0           block_0_add[0][0]
                                                                 block_1_project_BN[0][0]
__________________________________________________________________________________________________
block_2_expand (Conv2D)         (None, 112, 112, 96) 1536        block_1_add[0][0]
__________________________________________________________________________________________________
block_2_expand_BN (BatchNormali (None, 112, 112, 96) 384         block_2_expand[0][0]
__________________________________________________________________________________________________
block_2_expand_relu (ReLU)      (None, 112, 112, 96) 0           block_2_expand_BN[0][0]
__________________________________________________________________________________________________
block_2_pad (ZeroPadding2D)     (None, 113, 113, 96) 0           block_2_expand_relu[0][0]
__________________________________________________________________________________________________
block_2_depthwise (DepthwiseCon (None, 56, 56, 96)   864         block_2_pad[0][0]
__________________________________________________________________________________________________
block_2_depthwise_BN (BatchNorm (None, 56, 56, 96)   384         block_2_depthwise[0][0]
__________________________________________________________________________________________________
block_2_depthwise_relu (ReLU)   (None, 56, 56, 96)   0           block_2_depthwise_BN[0][0]
__________________________________________________________________________________________________
block_2_project (Conv2D)        (None, 56, 56, 24)   2304        block_2_depthwise_relu[0][0]
__________________________________________________________________________________________________
block_2_project_BN (BatchNormal (None, 56, 56, 24)   96          block_2_project[0][0]
__________________________________________________________________________________________________
block_3_expand (Conv2D)         (None, 56, 56, 144)  3456        block_2_project_BN[0][0]
__________________________________________________________________________________________________
block_3_expand_BN (BatchNormali (None, 56, 56, 144)  576         block_3_expand[0][0]
__________________________________________________________________________________________________
block_3_expand_relu (ReLU)      (None, 56, 56, 144)  0           block_3_expand_BN[0][0]
__________________________________________________________________________________________________
block_3_depthwise (DepthwiseCon (None, 56, 56, 144)  1296        block_3_expand_relu[0][0]
__________________________________________________________________________________________________
block_3_depthwise_BN (BatchNorm (None, 56, 56, 144)  576         block_3_depthwise[0][0]
__________________________________________________________________________________________________
block_3_depthwise_relu (ReLU)   (None, 56, 56, 144)  0           block_3_depthwise_BN[0][0]
__________________________________________________________________________________________________
block_3_project (Conv2D)        (None, 56, 56, 24)   3456        block_3_depthwise_relu[0][0]
__________________________________________________________________________________________________
block_3_project_BN (BatchNormal (None, 56, 56, 24)   96          block_3_project[0][0]
__________________________________________________________________________________________________
block_3_add (Add)               (None, 56, 56, 24)   0           block_2_project_BN[0][0]
                                                                 block_3_project_BN[0][0]
__________________________________________________________________________________________________
block_4_expand (Conv2D)         (None, 56, 56, 144)  3456        block_3_add[0][0]
__________________________________________________________________________________________________
block_4_expand_BN (BatchNormali (None, 56, 56, 144)  576         block_4_expand[0][0]
__________________________________________________________________________________________________
block_4_expand_relu (ReLU)      (None, 56, 56, 144)  0           block_4_expand_BN[0][0]
__________________________________________________________________________________________________
block_4_depthwise (DepthwiseCon (None, 56, 56, 144)  1296        block_4_expand_relu[0][0]
__________________________________________________________________________________________________
block_4_depthwise_BN (BatchNorm (None, 56, 56, 144)  576         block_4_depthwise[0][0]
__________________________________________________________________________________________________
block_4_depthwise_relu (ReLU)   (None, 56, 56, 144)  0           block_4_depthwise_BN[0][0]
__________________________________________________________________________________________________
block_4_project (Conv2D)        (None, 56, 56, 24)   3456        block_4_depthwise_relu[0][0]
__________________________________________________________________________________________________
block_4_project_BN (BatchNormal (None, 56, 56, 24)   96          block_4_project[0][0]
__________________________________________________________________________________________________
block_4_add (Add)               (None, 56, 56, 24)   0           block_3_add[0][0]
                                                                 block_4_project_BN[0][0]
__________________________________________________________________________________________________
block_5_expand (Conv2D)         (None, 56, 56, 144)  3456        block_4_add[0][0]
__________________________________________________________________________________________________
block_5_expand_BN (BatchNormali (None, 56, 56, 144)  576         block_5_expand[0][0]
__________________________________________________________________________________________________
block_5_expand_relu (ReLU)      (None, 56, 56, 144)  0           block_5_expand_BN[0][0]
__________________________________________________________________________________________________
block_5_pad (ZeroPadding2D)     (None, 57, 57, 144)  0           block_5_expand_relu[0][0]
__________________________________________________________________________________________________
block_5_depthwise (DepthwiseCon (None, 28, 28, 144)  1296        block_5_pad[0][0]
__________________________________________________________________________________________________
block_5_depthwise_BN (BatchNorm (None, 28, 28, 144)  576         block_5_depthwise[0][0]
__________________________________________________________________________________________________
block_5_depthwise_relu (ReLU)   (None, 28, 28, 144)  0           block_5_depthwise_BN[0][0]
__________________________________________________________________________________________________
block_5_project (Conv2D)        (None, 28, 28, 32)   4608        block_5_depthwise_relu[0][0]
__________________________________________________________________________________________________
block_5_project_BN (BatchNormal (None, 28, 28, 32)   128         block_5_project[0][0]
__________________________________________________________________________________________________
block_6_expand (Conv2D)         (None, 28, 28, 192)  6144        block_5_project_BN[0][0]
__________________________________________________________________________________________________
block_6_expand_BN (BatchNormali (None, 28, 28, 192)  768         block_6_expand[0][0]
__________________________________________________________________________________________________
block_6_expand_relu (ReLU)      (None, 28, 28, 192)  0           block_6_expand_BN[0][0]
__________________________________________________________________________________________________
block_6_depthwise (DepthwiseCon (None, 28, 28, 192)  1728        block_6_expand_relu[0][0]
__________________________________________________________________________________________________
block_6_depthwise_BN (BatchNorm (None, 28, 28, 192)  768         block_6_depthwise[0][0]
__________________________________________________________________________________________________
block_6_depthwise_relu (ReLU)   (None, 28, 28, 192)  0           block_6_depthwise_BN[0][0]
__________________________________________________________________________________________________
block_6_project (Conv2D)        (None, 28, 28, 32)   6144        block_6_depthwise_relu[0][0]
__________________________________________________________________________________________________
block_6_project_BN (BatchNormal (None, 28, 28, 32)   128         block_6_project[0][0]
__________________________________________________________________________________________________
block_6_add (Add)               (None, 28, 28, 32)   0           block_5_project_BN[0][0]
                                                                 block_6_project_BN[0][0]
__________________________________________________________________________________________________
block_7_expand (Conv2D)         (None, 28, 28, 192)  6144        block_6_add[0][0]
__________________________________________________________________________________________________
block_7_expand_BN (BatchNormali (None, 28, 28, 192)  768         block_7_expand[0][0]
__________________________________________________________________________________________________
block_7_expand_relu (ReLU)      (None, 28, 28, 192)  0           block_7_expand_BN[0][0]
__________________________________________________________________________________________________
block_7_depthwise (DepthwiseCon (None, 28, 28, 192)  1728        block_7_expand_relu[0][0]
__________________________________________________________________________________________________
block_7_depthwise_BN (BatchNorm (None, 28, 28, 192)  768         block_7_depthwise[0][0]
__________________________________________________________________________________________________
block_7_depthwise_relu (ReLU)   (None, 28, 28, 192)  0           block_7_depthwise_BN[0][0]
__________________________________________________________________________________________________
block_7_project (Conv2D)        (None, 28, 28, 32)   6144        block_7_depthwise_relu[0][0]
__________________________________________________________________________________________________
block_7_project_BN (BatchNormal (None, 28, 28, 32)   128         block_7_project[0][0]
__________________________________________________________________________________________________
block_7_add (Add)               (None, 28, 28, 32)   0           block_6_add[0][0]
                                                                 block_7_project_BN[0][0]
__________________________________________________________________________________________________
block_8_expand (Conv2D)         (None, 28, 28, 192)  6144        block_7_add[0][0]
__________________________________________________________________________________________________
block_8_expand_BN (BatchNormali (None, 28, 28, 192)  768         block_8_expand[0][0]
__________________________________________________________________________________________________
block_8_expand_relu (ReLU)      (None, 28, 28, 192)  0           block_8_expand_BN[0][0]
__________________________________________________________________________________________________
block_8_depthwise (DepthwiseCon (None, 28, 28, 192)  1728        block_8_expand_relu[0][0]
__________________________________________________________________________________________________
block_8_depthwise_BN (BatchNorm (None, 28, 28, 192)  768         block_8_depthwise[0][0]
__________________________________________________________________________________________________
block_8_depthwise_relu (ReLU)   (None, 28, 28, 192)  0           block_8_depthwise_BN[0][0]
__________________________________________________________________________________________________
block_8_project (Conv2D)        (None, 28, 28, 32)   6144        block_8_depthwise_relu[0][0]
__________________________________________________________________________________________________
block_8_project_BN (BatchNormal (None, 28, 28, 32)   128         block_8_project[0][0]
__________________________________________________________________________________________________
block_8_add (Add)               (None, 28, 28, 32)   0           block_7_add[0][0]
                                                                 block_8_project_BN[0][0]
__________________________________________________________________________________________________
block_9_expand (Conv2D)         (None, 28, 28, 192)  6144        block_8_add[0][0]
__________________________________________________________________________________________________
block_9_expand_BN (BatchNormali (None, 28, 28, 192)  768         block_9_expand[0][0]
__________________________________________________________________________________________________
block_9_expand_relu (ReLU)      (None, 28, 28, 192)  0           block_9_expand_BN[0][0]
__________________________________________________________________________________________________
block_9_pad (ZeroPadding2D)     (None, 29, 29, 192)  0           block_9_expand_relu[0][0]
__________________________________________________________________________________________________
block_9_depthwise (DepthwiseCon (None, 14, 14, 192)  1728        block_9_pad[0][0]
__________________________________________________________________________________________________
block_9_depthwise_BN (BatchNorm (None, 14, 14, 192)  768         block_9_depthwise[0][0]
__________________________________________________________________________________________________
block_9_depthwise_relu (ReLU)   (None, 14, 14, 192)  0           block_9_depthwise_BN[0][0]
__________________________________________________________________________________________________
block_9_project (Conv2D)        (None, 14, 14, 32)   6144        block_9_depthwise_relu[0][0]
__________________________________________________________________________________________________
block_9_project_BN (BatchNormal (None, 14, 14, 32)   128         block_9_project[0][0]
__________________________________________________________________________________________________
block_10_expand (Conv2D)        (None, 14, 14, 192)  6144        block_9_project_BN[0][0]
__________________________________________________________________________________________________
block_10_expand_BN (BatchNormal (None, 14, 14, 192)  768         block_10_expand[0][0]
__________________________________________________________________________________________________
block_10_expand_relu (ReLU)     (None, 14, 14, 192)  0           block_10_expand_BN[0][0]
__________________________________________________________________________________________________
block_10_depthwise (DepthwiseCo (None, 14, 14, 192)  1728        block_10_expand_relu[0][0]
__________________________________________________________________________________________________
block_10_depthwise_BN (BatchNor (None, 14, 14, 192)  768         block_10_depthwise[0][0]
__________________________________________________________________________________________________
block_10_depthwise_relu (ReLU)  (None, 14, 14, 192)  0           block_10_depthwise_BN[0][0]
__________________________________________________________________________________________________
block_10_project (Conv2D)       (None, 14, 14, 32)   6144        block_10_depthwise_relu[0][0]
__________________________________________________________________________________________________
block_10_project_BN (BatchNorma (None, 14, 14, 32)   128         block_10_project[0][0]
__________________________________________________________________________________________________
block_10_add (Add)              (None, 14, 14, 32)   0           block_9_project_BN[0][0]
                                                                 block_10_project_BN[0][0]
__________________________________________________________________________________________________
block_11_expand (Conv2D)        (None, 14, 14, 192)  6144        block_10_add[0][0]
__________________________________________________________________________________________________
block_11_expand_BN (BatchNormal (None, 14, 14, 192)  768         block_11_expand[0][0]
__________________________________________________________________________________________________
block_11_expand_relu (ReLU)     (None, 14, 14, 192)  0           block_11_expand_BN[0][0]
__________________________________________________________________________________________________
block_11_depthwise (DepthwiseCo (None, 14, 14, 192)  1728        block_11_expand_relu[0][0]
__________________________________________________________________________________________________
block_11_depthwise_BN (BatchNor (None, 14, 14, 192)  768         block_11_depthwise[0][0]
__________________________________________________________________________________________________
block_11_depthwise_relu (ReLU)  (None, 14, 14, 192)  0           block_11_depthwise_BN[0][0]
__________________________________________________________________________________________________
block_11_project (Conv2D)       (None, 14, 14, 32)   6144        block_11_depthwise_relu[0][0]
__________________________________________________________________________________________________
block_11_project_BN (BatchNorma (None, 14, 14, 32)   128         block_11_project[0][0]
__________________________________________________________________________________________________
block_11_add (Add)              (None, 14, 14, 32)   0           block_10_add[0][0]
                                                                 block_11_project_BN[0][0]
__________________________________________________________________________________________________
block_12_expand (Conv2D)        (None, 14, 14, 192)  6144        block_11_add[0][0]
__________________________________________________________________________________________________
block_12_expand_BN (BatchNormal (None, 14, 14, 192)  768         block_12_expand[0][0]
__________________________________________________________________________________________________
block_12_expand_relu (ReLU)     (None, 14, 14, 192)  0           block_12_expand_BN[0][0]
__________________________________________________________________________________________________
block_12_pad (ZeroPadding2D)    (None, 15, 15, 192)  0           block_12_expand_relu[0][0]
__________________________________________________________________________________________________
block_12_depthwise (DepthwiseCo (None, 7, 7, 192)    1728        block_12_pad[0][0]
__________________________________________________________________________________________________
block_12_depthwise_BN (BatchNor (None, 7, 7, 192)    768         block_12_depthwise[0][0]
__________________________________________________________________________________________________
block_12_depthwise_relu (ReLU)  (None, 7, 7, 192)    0           block_12_depthwise_BN[0][0]
__________________________________________________________________________________________________
block_12_project (Conv2D)       (None, 7, 7, 32)     6144        block_12_depthwise_relu[0][0]
__________________________________________________________________________________________________
block_12_project_BN (BatchNorma (None, 7, 7, 32)     128         block_12_project[0][0]
__________________________________________________________________________________________________
block_13_expand (Conv2D)        (None, 7, 7, 192)    6144        block_12_project_BN[0][0]
__________________________________________________________________________________________________
block_13_expand_BN (BatchNormal (None, 7, 7, 192)    768         block_13_expand[0][0]
__________________________________________________________________________________________________
block_13_expand_relu (ReLU)     (None, 7, 7, 192)    0           block_13_expand_BN[0][0]
__________________________________________________________________________________________________
block_13_depthwise (DepthwiseCo (None, 7, 7, 192)    1728        block_13_expand_relu[0][0]
__________________________________________________________________________________________________
block_13_depthwise_BN (BatchNor (None, 7, 7, 192)    768         block_13_depthwise[0][0]
__________________________________________________________________________________________________
block_13_depthwise_relu (ReLU)  (None, 7, 7, 192)    0           block_13_depthwise_BN[0][0]
__________________________________________________________________________________________________
block_13_project (Conv2D)       (None, 7, 7, 32)     6144        block_13_depthwise_relu[0][0]
__________________________________________________________________________________________________
block_13_project_BN (BatchNorma (None, 7, 7, 32)     128         block_13_project[0][0]
__________________________________________________________________________________________________
block_13_add (Add)              (None, 7, 7, 32)     0           block_12_project_BN[0][0]
                                                                 block_13_project_BN[0][0]
__________________________________________________________________________________________________
conv_dw_200 (DepthwiseConv2D)   (None, 28, 28, 32)   288         block_8_add[0][0]
__________________________________________________________________________________________________
conv_dw_201 (DepthwiseConv2D)   (None, 14, 14, 32)   288         block_11_add[0][0]
__________________________________________________________________________________________________
conv_dw_202 (DepthwiseConv2D)   (None, 7, 7, 32)     288         block_13_add[0][0]
__________________________________________________________________________________________________
conv_dw_100 (DepthwiseConv2D)   (None, 28, 28, 32)   288         block_8_add[0][0]
__________________________________________________________________________________________________
conv_dw_101 (DepthwiseConv2D)   (None, 14, 14, 32)   288         block_11_add[0][0]
__________________________________________________________________________________________________
conv_dw_102 (DepthwiseConv2D)   (None, 7, 7, 32)     288         block_13_add[0][0]
__________________________________________________________________________________________________
conv_dw_200_bn (BatchNormalizat (None, 28, 28, 32)   128         conv_dw_200[0][0]
__________________________________________________________________________________________________
conv_dw_201_bn (BatchNormalizat (None, 14, 14, 32)   128         conv_dw_201[0][0]
__________________________________________________________________________________________________
conv_dw_202_bn (BatchNormalizat (None, 7, 7, 32)     128         conv_dw_202[0][0]
__________________________________________________________________________________________________
conv_dw_100_bn (BatchNormalizat (None, 28, 28, 32)   128         conv_dw_100[0][0]
__________________________________________________________________________________________________
conv_dw_101_bn (BatchNormalizat (None, 14, 14, 32)   128         conv_dw_101[0][0]
__________________________________________________________________________________________________
conv_dw_102_bn (BatchNormalizat (None, 7, 7, 32)     128         conv_dw_102[0][0]
__________________________________________________________________________________________________
conv_dw_200_relu6 (Activation)  (None, 28, 28, 32)   0           conv_dw_200_bn[0][0]
__________________________________________________________________________________________________
conv_dw_201_relu6 (Activation)  (None, 14, 14, 32)   0           conv_dw_201_bn[0][0]
__________________________________________________________________________________________________
conv_dw_202_relu6 (Activation)  (None, 7, 7, 32)     0           conv_dw_202_bn[0][0]
__________________________________________________________________________________________________
conv_dw_100_relu6 (Activation)  (None, 28, 28, 32)   0           conv_dw_100_bn[0][0]
__________________________________________________________________________________________________
conv_dw_101_relu6 (Activation)  (None, 14, 14, 32)   0           conv_dw_101_bn[0][0]
__________________________________________________________________________________________________
conv_dw_102_relu6 (Activation)  (None, 7, 7, 32)     0           conv_dw_102_bn[0][0]
__________________________________________________________________________________________________
conv_pw_200 (Conv2D)            (None, 28, 28, 12)   384         conv_dw_200_relu6[0][0]
__________________________________________________________________________________________________
conv_pw_201 (Conv2D)            (None, 14, 14, 12)   384         conv_dw_201_relu6[0][0]
__________________________________________________________________________________________________
conv_pw_202 (Conv2D)            (None, 7, 7, 12)     384         conv_dw_202_relu6[0][0]
__________________________________________________________________________________________________
conv_pw_100 (Conv2D)            (None, 28, 28, 24)   768         conv_dw_100_relu6[0][0]
__________________________________________________________________________________________________
conv_pw_101 (Conv2D)            (None, 14, 14, 24)   768         conv_dw_101_relu6[0][0]
__________________________________________________________________________________________________
conv_pw_102 (Conv2D)            (None, 7, 7, 24)     768         conv_dw_102_relu6[0][0]
__________________________________________________________________________________________________
conv_pw_200_bn (BatchNormalizat (None, 28, 28, 12)   48          conv_pw_200[0][0]
__________________________________________________________________________________________________
conv_pw_201_bn (BatchNormalizat (None, 14, 14, 12)   48          conv_pw_201[0][0]
__________________________________________________________________________________________________
conv_pw_202_bn (BatchNormalizat (None, 7, 7, 12)     48          conv_pw_202[0][0]
__________________________________________________________________________________________________
conv_pw_100_bn (BatchNormalizat (None, 28, 28, 24)   96          conv_pw_100[0][0]
__________________________________________________________________________________________________
conv_pw_101_bn (BatchNormalizat (None, 14, 14, 24)   96          conv_pw_101[0][0]
__________________________________________________________________________________________________
conv_pw_102_bn (BatchNormalizat (None, 7, 7, 24)     96          conv_pw_102[0][0]
__________________________________________________________________________________________________
conv_pw_200_relu6 (Activation)  (None, 28, 28, 12)   0           conv_pw_200_bn[0][0]
__________________________________________________________________________________________________
conv_pw_201_relu6 (Activation)  (None, 14, 14, 12)   0           conv_pw_201_bn[0][0]
__________________________________________________________________________________________________
conv_pw_202_relu6 (Activation)  (None, 7, 7, 12)     0           conv_pw_202_bn[0][0]
__________________________________________________________________________________________________
conv_pw_100_relu6 (Activation)  (None, 28, 28, 24)   0           conv_pw_100_bn[0][0]
__________________________________________________________________________________________________
conv_pw_101_relu6 (Activation)  (None, 14, 14, 24)   0           conv_pw_101_bn[0][0]
__________________________________________________________________________________________________
conv_pw_102_relu6 (Activation)  (None, 7, 7, 24)     0           conv_pw_102_bn[0][0]
__________________________________________________________________________________________________
Reshape_conf0 (Reshape)         (None, 4704, 2)      0           conv_pw_200_relu6[0][0]
__________________________________________________________________________________________________
Reshape_conf1 (Reshape)         (None, 1176, 2)      0           conv_pw_201_relu6[0][0]
__________________________________________________________________________________________________
Reshape_conf2 (Reshape)         (None, 294, 2)       0           conv_pw_202_relu6[0][0]
__________________________________________________________________________________________________
AnchorBoxes_0 (AnchorBoxes)     (None, 28, 28, 6, 8) 0           conv_pw_100_relu6[0][0]
__________________________________________________________________________________________________
AnchorBoxes_1 (AnchorBoxes)     (None, 14, 14, 6, 8) 0           conv_pw_101_relu6[0][0]
__________________________________________________________________________________________________
AnchorBoxes_2 (AnchorBoxes)     (None, 7, 7, 6, 8)   0           conv_pw_102_relu6[0][0]
__________________________________________________________________________________________________
Concatenate_conf (Concatenate)  (None, 6174, 2)      0           Reshape_conf0[0][0]
                                                                 Reshape_conf1[0][0]
                                                                 Reshape_conf2[0][0]
__________________________________________________________________________________________________
Reshape_loc0 (Reshape)          (None, 4704, 4)      0           conv_pw_100_relu6[0][0]
__________________________________________________________________________________________________
Reshape_loc1 (Reshape)          (None, 1176, 4)      0           conv_pw_101_relu6[0][0]
__________________________________________________________________________________________________
Reshape_loc2 (Reshape)          (None, 294, 4)       0           conv_pw_102_relu6[0][0]
__________________________________________________________________________________________________
Reshape_AnchorBoxes_0 (Reshape) (None, 4704, 8)      0           AnchorBoxes_0[0][0]
__________________________________________________________________________________________________
Reshape_AnchorBoxes_1 (Reshape) (None, 1176, 8)      0           AnchorBoxes_1[0][0]
__________________________________________________________________________________________________
Reshape_AnchorBoxes_2 (Reshape) (None, 294, 8)       0           AnchorBoxes_2[0][0]
__________________________________________________________________________________________________
Softmax_conf (Softmax)          (None, 6174, 2)      0           Concatenate_conf[0][0]
__________________________________________________________________________________________________
Concatenate_loc (Concatenate)   (None, 6174, 4)      0           Reshape_loc0[0][0]
                                                                 Reshape_loc1[0][0]
                                                                 Reshape_loc2[0][0]
__________________________________________________________________________________________________
Concatenate_ab (Concatenate)    (None, 6174, 8)      0           Reshape_AnchorBoxes_0[0][0]
                                                                 Reshape_AnchorBoxes_1[0][0]
                                                                 Reshape_AnchorBoxes_2[0][0]
__________________________________________________________________________________________________
Concatenate_predict (Concatenat (None, 6174, 14)     0           Softmax_conf[0][0]
                                                                 Concatenate_loc[0][0]
                                                                 Concatenate_ab[0][0]
==================================================================================================
Total params: 177,744
Trainable params: 167,304
Non-trainable params: 10,440
__________________________________________________________________________________________________
