weights: checkpoint/weights-23-0.0201.hdf5
__________________________________________________________________________________________________
Layer (type)                    Output Shape         Param #     Connected to
==================================================================================================
input_1 (InputLayer)            (None, 128, 128, 3)  0
__________________________________________________________________________________________________
input_mean_normalization (Lambd (None, 128, 128, 3)  0           input_1[0][0]
__________________________________________________________________________________________________
input_stddev_normalization (Lam (None, 128, 128, 3)  0           input_mean_normalization[0][0]
__________________________________________________________________________________________________
conv_0 (Conv2D)                 (None, 64, 64, 8)    600         input_stddev_normalization[0][0]
__________________________________________________________________________________________________
bn_0 (BatchNormalization)       (None, 64, 64, 8)    32          conv_0[0][0]
__________________________________________________________________________________________________
relu_0 (Activation)             (None, 64, 64, 8)    0           bn_0[0][0]
__________________________________________________________________________________________________
block_0_expand (Conv2D)         (None, 64, 64, 48)   384         relu_0[0][0]
__________________________________________________________________________________________________
block_0_expand_BN (BatchNormali (None, 64, 64, 48)   192         block_0_expand[0][0]
__________________________________________________________________________________________________
block_0_expand_relu (ReLU)      (None, 64, 64, 48)   0           block_0_expand_BN[0][0]
__________________________________________________________________________________________________
block_0_depthwise (DepthwiseCon (None, 64, 64, 48)   432         block_0_expand_relu[0][0]
__________________________________________________________________________________________________
block_0_depthwise_BN (BatchNorm (None, 64, 64, 48)   192         block_0_depthwise[0][0]
__________________________________________________________________________________________________
block_0_depthwise_relu (ReLU)   (None, 64, 64, 48)   0           block_0_depthwise_BN[0][0]
__________________________________________________________________________________________________
block_0_project (Conv2D)        (None, 64, 64, 8)    384         block_0_depthwise_relu[0][0]
__________________________________________________________________________________________________
block_0_project_BN (BatchNormal (None, 64, 64, 8)    32          block_0_project[0][0]
__________________________________________________________________________________________________
block_0_add (Add)               (None, 64, 64, 8)    0           relu_0[0][0]
                                                                 block_0_project_BN[0][0]
__________________________________________________________________________________________________
block_1_expand (Conv2D)         (None, 64, 64, 48)   384         block_0_add[0][0]
__________________________________________________________________________________________________
block_1_expand_BN (BatchNormali (None, 64, 64, 48)   192         block_1_expand[0][0]
__________________________________________________________________________________________________
block_1_expand_relu (ReLU)      (None, 64, 64, 48)   0           block_1_expand_BN[0][0]
__________________________________________________________________________________________________
block_1_pad (ZeroPadding2D)     (None, 65, 65, 48)   0           block_1_expand_relu[0][0]
__________________________________________________________________________________________________
block_1_depthwise (DepthwiseCon (None, 32, 32, 48)   432         block_1_pad[0][0]
__________________________________________________________________________________________________
block_1_depthwise_BN (BatchNorm (None, 32, 32, 48)   192         block_1_depthwise[0][0]
__________________________________________________________________________________________________
block_1_depthwise_relu (ReLU)   (None, 32, 32, 48)   0           block_1_depthwise_BN[0][0]
__________________________________________________________________________________________________
block_1_project (Conv2D)        (None, 32, 32, 16)   768         block_1_depthwise_relu[0][0]
__________________________________________________________________________________________________
block_1_project_BN (BatchNormal (None, 32, 32, 16)   64          block_1_project[0][0]
__________________________________________________________________________________________________
block_2_expand (Conv2D)         (None, 32, 32, 96)   1536        block_1_project_BN[0][0]
__________________________________________________________________________________________________
block_2_expand_BN (BatchNormali (None, 32, 32, 96)   384         block_2_expand[0][0]
__________________________________________________________________________________________________
block_2_expand_relu (ReLU)      (None, 32, 32, 96)   0           block_2_expand_BN[0][0]
__________________________________________________________________________________________________
block_2_depthwise (DepthwiseCon (None, 32, 32, 96)   864         block_2_expand_relu[0][0]
__________________________________________________________________________________________________
block_2_depthwise_BN (BatchNorm (None, 32, 32, 96)   384         block_2_depthwise[0][0]
__________________________________________________________________________________________________
block_2_depthwise_relu (ReLU)   (None, 32, 32, 96)   0           block_2_depthwise_BN[0][0]
__________________________________________________________________________________________________
block_2_project (Conv2D)        (None, 32, 32, 16)   1536        block_2_depthwise_relu[0][0]
__________________________________________________________________________________________________
block_2_project_BN (BatchNormal (None, 32, 32, 16)   64          block_2_project[0][0]
__________________________________________________________________________________________________
block_2_add (Add)               (None, 32, 32, 16)   0           block_1_project_BN[0][0]
                                                                 block_2_project_BN[0][0]
__________________________________________________________________________________________________
block_3_expand (Conv2D)         (None, 32, 32, 96)   1536        block_2_add[0][0]
__________________________________________________________________________________________________
block_3_expand_BN (BatchNormali (None, 32, 32, 96)   384         block_3_expand[0][0]
__________________________________________________________________________________________________
block_3_expand_relu (ReLU)      (None, 32, 32, 96)   0           block_3_expand_BN[0][0]
__________________________________________________________________________________________________
block_3_pad (ZeroPadding2D)     (None, 33, 33, 96)   0           block_3_expand_relu[0][0]
__________________________________________________________________________________________________
block_3_depthwise (DepthwiseCon (None, 16, 16, 96)   864         block_3_pad[0][0]
__________________________________________________________________________________________________
block_3_depthwise_BN (BatchNorm (None, 16, 16, 96)   384         block_3_depthwise[0][0]
__________________________________________________________________________________________________
block_3_depthwise_relu (ReLU)   (None, 16, 16, 96)   0           block_3_depthwise_BN[0][0]
__________________________________________________________________________________________________
block_3_project (Conv2D)        (None, 16, 16, 24)   2304        block_3_depthwise_relu[0][0]
__________________________________________________________________________________________________
block_3_project_BN (BatchNormal (None, 16, 16, 24)   96          block_3_project[0][0]
__________________________________________________________________________________________________
block_4_expand (Conv2D)         (None, 16, 16, 144)  3456        block_3_project_BN[0][0]
__________________________________________________________________________________________________
block_4_expand_BN (BatchNormali (None, 16, 16, 144)  576         block_4_expand[0][0]
__________________________________________________________________________________________________
block_4_expand_relu (ReLU)      (None, 16, 16, 144)  0           block_4_expand_BN[0][0]
__________________________________________________________________________________________________
block_4_depthwise (DepthwiseCon (None, 16, 16, 144)  1296        block_4_expand_relu[0][0]
__________________________________________________________________________________________________
block_4_depthwise_BN (BatchNorm (None, 16, 16, 144)  576         block_4_depthwise[0][0]
__________________________________________________________________________________________________
block_4_depthwise_relu (ReLU)   (None, 16, 16, 144)  0           block_4_depthwise_BN[0][0]
__________________________________________________________________________________________________
block_4_project (Conv2D)        (None, 16, 16, 24)   3456        block_4_depthwise_relu[0][0]
__________________________________________________________________________________________________
block_4_project_BN (BatchNormal (None, 16, 16, 24)   96          block_4_project[0][0]
__________________________________________________________________________________________________
block_4_add (Add)               (None, 16, 16, 24)   0           block_3_project_BN[0][0]
                                                                 block_4_project_BN[0][0]
__________________________________________________________________________________________________
block_5_expand (Conv2D)         (None, 16, 16, 144)  3456        block_4_add[0][0]
__________________________________________________________________________________________________
block_5_expand_BN (BatchNormali (None, 16, 16, 144)  576         block_5_expand[0][0]
__________________________________________________________________________________________________
block_5_expand_relu (ReLU)      (None, 16, 16, 144)  0           block_5_expand_BN[0][0]
__________________________________________________________________________________________________
block_5_pad (ZeroPadding2D)     (None, 17, 17, 144)  0           block_5_expand_relu[0][0]
__________________________________________________________________________________________________
block_5_depthwise (DepthwiseCon (None, 8, 8, 144)    1296        block_5_pad[0][0]
__________________________________________________________________________________________________
block_5_depthwise_BN (BatchNorm (None, 8, 8, 144)    576         block_5_depthwise[0][0]
__________________________________________________________________________________________________
block_5_depthwise_relu (ReLU)   (None, 8, 8, 144)    0           block_5_depthwise_BN[0][0]
__________________________________________________________________________________________________
block_5_project (Conv2D)        (None, 8, 8, 32)     4608        block_5_depthwise_relu[0][0]
__________________________________________________________________________________________________
block_5_project_BN (BatchNormal (None, 8, 8, 32)     128         block_5_project[0][0]
__________________________________________________________________________________________________
block_6_expand (Conv2D)         (None, 8, 8, 192)    6144        block_5_project_BN[0][0]
__________________________________________________________________________________________________
block_6_expand_BN (BatchNormali (None, 8, 8, 192)    768         block_6_expand[0][0]
__________________________________________________________________________________________________
block_6_expand_relu (ReLU)      (None, 8, 8, 192)    0           block_6_expand_BN[0][0]
__________________________________________________________________________________________________
block_6_depthwise (DepthwiseCon (None, 8, 8, 192)    1728        block_6_expand_relu[0][0]
__________________________________________________________________________________________________
block_6_depthwise_BN (BatchNorm (None, 8, 8, 192)    768         block_6_depthwise[0][0]
__________________________________________________________________________________________________
block_6_depthwise_relu (ReLU)   (None, 8, 8, 192)    0           block_6_depthwise_BN[0][0]
__________________________________________________________________________________________________
block_6_project (Conv2D)        (None, 8, 8, 32)     6144        block_6_depthwise_relu[0][0]
__________________________________________________________________________________________________
block_6_project_BN (BatchNormal (None, 8, 8, 32)     128         block_6_project[0][0]
__________________________________________________________________________________________________
block_6_add (Add)               (None, 8, 8, 32)     0           block_5_project_BN[0][0]
                                                                 block_6_project_BN[0][0]
__________________________________________________________________________________________________
block_7_expand (Conv2D)         (None, 8, 8, 192)    6144        block_6_add[0][0]
__________________________________________________________________________________________________
block_7_expand_BN (BatchNormali (None, 8, 8, 192)    768         block_7_expand[0][0]
__________________________________________________________________________________________________
block_7_expand_relu (ReLU)      (None, 8, 8, 192)    0           block_7_expand_BN[0][0]
__________________________________________________________________________________________________
block_7_pad (ZeroPadding2D)     (None, 9, 9, 192)    0           block_7_expand_relu[0][0]
__________________________________________________________________________________________________
block_7_depthwise (DepthwiseCon (None, 4, 4, 192)    1728        block_7_pad[0][0]
__________________________________________________________________________________________________
block_7_depthwise_BN (BatchNorm (None, 4, 4, 192)    768         block_7_depthwise[0][0]
__________________________________________________________________________________________________
block_7_depthwise_relu (ReLU)   (None, 4, 4, 192)    0           block_7_depthwise_BN[0][0]
__________________________________________________________________________________________________
block_7_project (Conv2D)        (None, 4, 4, 40)     7680        block_7_depthwise_relu[0][0]
__________________________________________________________________________________________________
block_7_project_BN (BatchNormal (None, 4, 4, 40)     160         block_7_project[0][0]
__________________________________________________________________________________________________
block_8_expand (Conv2D)         (None, 4, 4, 240)    9600        block_7_project_BN[0][0]
__________________________________________________________________________________________________
block_8_expand_BN (BatchNormali (None, 4, 4, 240)    960         block_8_expand[0][0]
__________________________________________________________________________________________________
block_8_expand_relu (ReLU)      (None, 4, 4, 240)    0           block_8_expand_BN[0][0]
__________________________________________________________________________________________________
block_8_depthwise (DepthwiseCon (None, 4, 4, 240)    2160        block_8_expand_relu[0][0]
__________________________________________________________________________________________________
block_8_depthwise_BN (BatchNorm (None, 4, 4, 240)    960         block_8_depthwise[0][0]
__________________________________________________________________________________________________
block_8_depthwise_relu (ReLU)   (None, 4, 4, 240)    0           block_8_depthwise_BN[0][0]
__________________________________________________________________________________________________
block_8_project (Conv2D)        (None, 4, 4, 40)     9600        block_8_depthwise_relu[0][0]
__________________________________________________________________________________________________
block_8_project_BN (BatchNormal (None, 4, 4, 40)     160         block_8_project[0][0]
__________________________________________________________________________________________________
block_8_add (Add)               (None, 4, 4, 40)     0           block_7_project_BN[0][0]
                                                                 block_8_project_BN[0][0]
__________________________________________________________________________________________________
transpose_9 (Conv2DTranspose)   (None, 8, 8, 40)     14400       block_8_add[0][0]
__________________________________________________________________________________________________
concatenate_9 (Concatenate)     (None, 8, 8, 72)     0           transpose_9[0][0]
                                                                 block_6_add[0][0]
__________________________________________________________________________________________________
block_9_expand (Conv2D)         (None, 8, 8, 432)    31104       concatenate_9[0][0]
__________________________________________________________________________________________________
block_9_expand_BN (BatchNormali (None, 8, 8, 432)    1728        block_9_expand[0][0]
__________________________________________________________________________________________________
block_9_expand_relu (ReLU)      (None, 8, 8, 432)    0           block_9_expand_BN[0][0]
__________________________________________________________________________________________________
block_9_depthwise (DepthwiseCon (None, 8, 8, 432)    3888        block_9_expand_relu[0][0]
__________________________________________________________________________________________________
block_9_depthwise_BN (BatchNorm (None, 8, 8, 432)    1728        block_9_depthwise[0][0]
__________________________________________________________________________________________________
block_9_depthwise_relu (ReLU)   (None, 8, 8, 432)    0           block_9_depthwise_BN[0][0]
__________________________________________________________________________________________________
block_9_project (Conv2D)        (None, 8, 8, 40)     17280       block_9_depthwise_relu[0][0]
__________________________________________________________________________________________________
block_9_project_BN (BatchNormal (None, 8, 8, 40)     160         block_9_project[0][0]
__________________________________________________________________________________________________
transpose_10 (Conv2DTranspose)  (None, 16, 16, 32)   11520       block_9_project_BN[0][0]
__________________________________________________________________________________________________
concatenate_10 (Concatenate)    (None, 16, 16, 56)   0           transpose_10[0][0]
                                                                 block_4_add[0][0]
__________________________________________________________________________________________________
block_10_expand (Conv2D)        (None, 16, 16, 336)  18816       concatenate_10[0][0]
__________________________________________________________________________________________________
block_10_expand_BN (BatchNormal (None, 16, 16, 336)  1344        block_10_expand[0][0]
__________________________________________________________________________________________________
block_10_expand_relu (ReLU)     (None, 16, 16, 336)  0           block_10_expand_BN[0][0]
__________________________________________________________________________________________________
block_10_depthwise (DepthwiseCo (None, 16, 16, 336)  3024        block_10_expand_relu[0][0]
__________________________________________________________________________________________________
block_10_depthwise_BN (BatchNor (None, 16, 16, 336)  1344        block_10_depthwise[0][0]
__________________________________________________________________________________________________
block_10_depthwise_relu (ReLU)  (None, 16, 16, 336)  0           block_10_depthwise_BN[0][0]
__________________________________________________________________________________________________
block_10_project (Conv2D)       (None, 16, 16, 32)   10752       block_10_depthwise_relu[0][0]
__________________________________________________________________________________________________
block_10_project_BN (BatchNorma (None, 16, 16, 32)   128         block_10_project[0][0]
__________________________________________________________________________________________________
transpose_11 (Conv2DTranspose)  (None, 32, 32, 24)   6912        block_10_project_BN[0][0]
__________________________________________________________________________________________________
concatenate_11 (Concatenate)    (None, 32, 32, 40)   0           transpose_11[0][0]
                                                                 block_2_add[0][0]
__________________________________________________________________________________________________
block_11_expand (Conv2D)        (None, 32, 32, 240)  9600        concatenate_11[0][0]
__________________________________________________________________________________________________
block_11_expand_BN (BatchNormal (None, 32, 32, 240)  960         block_11_expand[0][0]
__________________________________________________________________________________________________
block_11_expand_relu (ReLU)     (None, 32, 32, 240)  0           block_11_expand_BN[0][0]
__________________________________________________________________________________________________
block_11_depthwise (DepthwiseCo (None, 32, 32, 240)  2160        block_11_expand_relu[0][0]
__________________________________________________________________________________________________
block_11_depthwise_BN (BatchNor (None, 32, 32, 240)  960         block_11_depthwise[0][0]
__________________________________________________________________________________________________
block_11_depthwise_relu (ReLU)  (None, 32, 32, 240)  0           block_11_depthwise_BN[0][0]
__________________________________________________________________________________________________
block_11_project (Conv2D)       (None, 32, 32, 24)   5760        block_11_depthwise_relu[0][0]
__________________________________________________________________________________________________
block_11_project_BN (BatchNorma (None, 32, 32, 24)   96          block_11_project[0][0]
__________________________________________________________________________________________________
transpose_12 (Conv2DTranspose)  (None, 64, 64, 16)   3456        block_11_project_BN[0][0]
__________________________________________________________________________________________________
concatenate_12 (Concatenate)    (None, 64, 64, 24)   0           transpose_12[0][0]
                                                                 block_0_add[0][0]
__________________________________________________________________________________________________
block_12_expand (Conv2D)        (None, 64, 64, 144)  3456        concatenate_12[0][0]
__________________________________________________________________________________________________
block_12_expand_BN (BatchNormal (None, 64, 64, 144)  576         block_12_expand[0][0]
__________________________________________________________________________________________________
block_12_expand_relu (ReLU)     (None, 64, 64, 144)  0           block_12_expand_BN[0][0]
__________________________________________________________________________________________________
block_12_depthwise (DepthwiseCo (None, 64, 64, 144)  1296        block_12_expand_relu[0][0]
__________________________________________________________________________________________________
block_12_depthwise_BN (BatchNor (None, 64, 64, 144)  576         block_12_depthwise[0][0]
__________________________________________________________________________________________________
block_12_depthwise_relu (ReLU)  (None, 64, 64, 144)  0           block_12_depthwise_BN[0][0]
__________________________________________________________________________________________________
block_12_project (Conv2D)       (None, 64, 64, 16)   2304        block_12_depthwise_relu[0][0]
__________________________________________________________________________________________________
block_12_project_BN (BatchNorma (None, 64, 64, 16)   64          block_12_project[0][0]
__________________________________________________________________________________________________
concatenate_0 (Concatenate)     (None, 64, 64, 24)   0           block_12_project_BN[0][0]
                                                                 relu_0[0][0]
__________________________________________________________________________________________________
block_13_expand (Conv2D)        (None, 64, 64, 144)  3456        concatenate_0[0][0]
__________________________________________________________________________________________________
block_13_expand_BN (BatchNormal (None, 64, 64, 144)  576         block_13_expand[0][0]
__________________________________________________________________________________________________
block_13_expand_relu (ReLU)     (None, 64, 64, 144)  0           block_13_expand_BN[0][0]
__________________________________________________________________________________________________
block_13_depthwise (DepthwiseCo (None, 64, 64, 144)  1296        block_13_expand_relu[0][0]
__________________________________________________________________________________________________
block_13_depthwise_BN (BatchNor (None, 64, 64, 144)  576         block_13_depthwise[0][0]
__________________________________________________________________________________________________
block_13_depthwise_relu (ReLU)  (None, 64, 64, 144)  0           block_13_depthwise_BN[0][0]
__________________________________________________________________________________________________
block_13_project (Conv2D)       (None, 64, 64, 8)    1152        block_13_depthwise_relu[0][0]
__________________________________________________________________________________________________
block_13_project_BN (BatchNorma (None, 64, 64, 8)    32          block_13_project[0][0]
__________________________________________________________________________________________________
transpose_0 (Conv2DTranspose)   (None, 128, 128, 8)  576         block_13_project_BN[0][0]
__________________________________________________________________________________________________
compress (Conv2D)               (None, 128, 128, 1)  73          transpose_0[0][0]
==================================================================================================
Total params: 254,209
Trainable params: 243,505
Non-trainable params: 10,704
__________________________________________________________________________________________________
