weights: checkpoint/weights-76-0.0150.hdf5
__________________________________________________________________________________________________
Layer (type)                    Output Shape         Param #     Connected to
==================================================================================================
input (InputLayer)            (None, 224, 224, 3)  0
__________________________________________________________________________________________________
input_channel_swap (Lambda)     (None, 224, 224, 3)  0           input_5[0][0]
__________________________________________________________________________________________________
input_mean_normalization (Lambd (None, 224, 224, 3)  0           input_channel_swap[0][0]
__________________________________________________________________________________________________
input_stddev_normalization (Lam (None, 224, 224, 3)  0           input_mean_normalization[0][0]
__________________________________________________________________________________________________
conv_0 (Conv2D)                 (None, 112, 112, 8)  600         input_stddev_normalization[0][0]
__________________________________________________________________________________________________
bn_0 (BatchNormalization)       (None, 112, 112, 8)  32          conv_0[0][0]
__________________________________________________________________________________________________
relu_0 (Activation)             (None, 112, 112, 8)  0           bn_0[0][0]
__________________________________________________________________________________________________
block_0_expand (Conv2D)         (None, 112, 112, 48) 384         relu_0[0][0]
__________________________________________________________________________________________________
block_0_expand_BN (BatchNormali (None, 112, 112, 48) 192         block_0_expand[0][0]
__________________________________________________________________________________________________
block_0_expand_relu (ReLU)      (None, 112, 112, 48) 0           block_0_expand_BN[0][0]
__________________________________________________________________________________________________
block_0_depthwise (DepthwiseCon (None, 112, 112, 48) 432         block_0_expand_relu[0][0]
__________________________________________________________________________________________________
block_0_depthwise_BN (BatchNorm (None, 112, 112, 48) 192         block_0_depthwise[0][0]
__________________________________________________________________________________________________
block_0_depthwise_relu (ReLU)   (None, 112, 112, 48) 0           block_0_depthwise_BN[0][0]
__________________________________________________________________________________________________
block_0_project (Conv2D)        (None, 112, 112, 8)  384         block_0_depthwise_relu[0][0]
__________________________________________________________________________________________________
block_0_project_BN (BatchNormal (None, 112, 112, 8)  32          block_0_project[0][0]
__________________________________________________________________________________________________
block_0_add (Add)               (None, 112, 112, 8)  0           relu_0[0][0]
                                                                 block_0_project_BN[0][0]
__________________________________________________________________________________________________
block_1_expand (Conv2D)         (None, 112, 112, 48) 384         block_0_add[0][0]
__________________________________________________________________________________________________
block_1_expand_BN (BatchNormali (None, 112, 112, 48) 192         block_1_expand[0][0]
__________________________________________________________________________________________________
block_1_expand_relu (ReLU)      (None, 112, 112, 48) 0           block_1_expand_BN[0][0]
__________________________________________________________________________________________________
block_1_pad (ZeroPadding2D)     (None, 113, 113, 48) 0           block_1_expand_relu[0][0]
__________________________________________________________________________________________________
block_1_depthwise (DepthwiseCon (None, 56, 56, 48)   432         block_1_pad[0][0]
__________________________________________________________________________________________________
block_1_depthwise_BN (BatchNorm (None, 56, 56, 48)   192         block_1_depthwise[0][0]
__________________________________________________________________________________________________
block_1_depthwise_relu (ReLU)   (None, 56, 56, 48)   0           block_1_depthwise_BN[0][0]
__________________________________________________________________________________________________
block_1_project (Conv2D)        (None, 56, 56, 16)   768         block_1_depthwise_relu[0][0]
__________________________________________________________________________________________________
block_1_project_BN (BatchNormal (None, 56, 56, 16)   64          block_1_project[0][0]
__________________________________________________________________________________________________
block_2_expand (Conv2D)         (None, 56, 56, 96)   1536        block_1_project_BN[0][0]
__________________________________________________________________________________________________
block_2_expand_BN (BatchNormali (None, 56, 56, 96)   384         block_2_expand[0][0]
__________________________________________________________________________________________________
block_2_expand_relu (ReLU)      (None, 56, 56, 96)   0           block_2_expand_BN[0][0]
__________________________________________________________________________________________________
block_2_depthwise (DepthwiseCon (None, 56, 56, 96)   864         block_2_expand_relu[0][0]
__________________________________________________________________________________________________
block_2_depthwise_BN (BatchNorm (None, 56, 56, 96)   384         block_2_depthwise[0][0]
__________________________________________________________________________________________________
block_2_depthwise_relu (ReLU)   (None, 56, 56, 96)   0           block_2_depthwise_BN[0][0]
__________________________________________________________________________________________________
block_2_project (Conv2D)        (None, 56, 56, 16)   1536        block_2_depthwise_relu[0][0]
__________________________________________________________________________________________________
block_2_project_BN (BatchNormal (None, 56, 56, 16)   64          block_2_project[0][0]
__________________________________________________________________________________________________
block_2_add (Add)               (None, 56, 56, 16)   0           block_1_project_BN[0][0]
                                                                 block_2_project_BN[0][0]
__________________________________________________________________________________________________
block_3_expand (Conv2D)         (None, 56, 56, 96)   1536        block_2_add[0][0]
__________________________________________________________________________________________________
block_3_expand_BN (BatchNormali (None, 56, 56, 96)   384         block_3_expand[0][0]
__________________________________________________________________________________________________
block_3_expand_relu (ReLU)      (None, 56, 56, 96)   0           block_3_expand_BN[0][0]
__________________________________________________________________________________________________
block_3_pad (ZeroPadding2D)     (None, 57, 57, 96)   0           block_3_expand_relu[0][0]
__________________________________________________________________________________________________
block_3_depthwise (DepthwiseCon (None, 28, 28, 96)   864         block_3_pad[0][0]
__________________________________________________________________________________________________
block_3_depthwise_BN (BatchNorm (None, 28, 28, 96)   384         block_3_depthwise[0][0]
__________________________________________________________________________________________________
block_3_depthwise_relu (ReLU)   (None, 28, 28, 96)   0           block_3_depthwise_BN[0][0]
__________________________________________________________________________________________________
block_3_project (Conv2D)        (None, 28, 28, 24)   2304        block_3_depthwise_relu[0][0]
__________________________________________________________________________________________________
block_3_project_BN (BatchNormal (None, 28, 28, 24)   96          block_3_project[0][0]
__________________________________________________________________________________________________
block_4_expand (Conv2D)         (None, 28, 28, 144)  3456        block_3_project_BN[0][0]
__________________________________________________________________________________________________
block_4_expand_BN (BatchNormali (None, 28, 28, 144)  576         block_4_expand[0][0]
__________________________________________________________________________________________________
block_4_expand_relu (ReLU)      (None, 28, 28, 144)  0           block_4_expand_BN[0][0]
__________________________________________________________________________________________________
block_4_depthwise (DepthwiseCon (None, 28, 28, 144)  1296        block_4_expand_relu[0][0]
__________________________________________________________________________________________________
block_4_depthwise_BN (BatchNorm (None, 28, 28, 144)  576         block_4_depthwise[0][0]
__________________________________________________________________________________________________
block_4_depthwise_relu (ReLU)   (None, 28, 28, 144)  0           block_4_depthwise_BN[0][0]
__________________________________________________________________________________________________
block_4_project (Conv2D)        (None, 28, 28, 24)   3456        block_4_depthwise_relu[0][0]
__________________________________________________________________________________________________
block_4_project_BN (BatchNormal (None, 28, 28, 24)   96          block_4_project[0][0]
__________________________________________________________________________________________________
block_4_add (Add)               (None, 28, 28, 24)   0           block_3_project_BN[0][0]
                                                                 block_4_project_BN[0][0]
__________________________________________________________________________________________________
block_5_expand (Conv2D)         (None, 28, 28, 144)  3456        block_4_add[0][0]
__________________________________________________________________________________________________
block_5_expand_BN (BatchNormali (None, 28, 28, 144)  576         block_5_expand[0][0]
__________________________________________________________________________________________________
block_5_expand_relu (ReLU)      (None, 28, 28, 144)  0           block_5_expand_BN[0][0]
__________________________________________________________________________________________________
block_5_pad (ZeroPadding2D)     (None, 29, 29, 144)  0           block_5_expand_relu[0][0]
__________________________________________________________________________________________________
block_5_depthwise (DepthwiseCon (None, 14, 14, 144)  1296        block_5_pad[0][0]
__________________________________________________________________________________________________
block_5_depthwise_BN (BatchNorm (None, 14, 14, 144)  576         block_5_depthwise[0][0]
__________________________________________________________________________________________________
block_5_depthwise_relu (ReLU)   (None, 14, 14, 144)  0           block_5_depthwise_BN[0][0]
__________________________________________________________________________________________________
block_5_project (Conv2D)        (None, 14, 14, 32)   4608        block_5_depthwise_relu[0][0]
__________________________________________________________________________________________________
block_5_project_BN (BatchNormal (None, 14, 14, 32)   128         block_5_project[0][0]
__________________________________________________________________________________________________
block_6_expand (Conv2D)         (None, 14, 14, 192)  6144        block_5_project_BN[0][0]
__________________________________________________________________________________________________
block_6_expand_BN (BatchNormali (None, 14, 14, 192)  768         block_6_expand[0][0]
__________________________________________________________________________________________________
block_6_expand_relu (ReLU)      (None, 14, 14, 192)  0           block_6_expand_BN[0][0]
__________________________________________________________________________________________________
block_6_depthwise (DepthwiseCon (None, 14, 14, 192)  1728        block_6_expand_relu[0][0]
__________________________________________________________________________________________________
block_6_depthwise_BN (BatchNorm (None, 14, 14, 192)  768         block_6_depthwise[0][0]
__________________________________________________________________________________________________
block_6_depthwise_relu (ReLU)   (None, 14, 14, 192)  0           block_6_depthwise_BN[0][0]
__________________________________________________________________________________________________
block_6_project (Conv2D)        (None, 14, 14, 32)   6144        block_6_depthwise_relu[0][0]
__________________________________________________________________________________________________
block_6_project_BN (BatchNormal (None, 14, 14, 32)   128         block_6_project[0][0]
__________________________________________________________________________________________________
block_6_add (Add)               (None, 14, 14, 32)   0           block_5_project_BN[0][0]
                                                                 block_6_project_BN[0][0]
__________________________________________________________________________________________________
block_7_expand (Conv2D)         (None, 14, 14, 192)  6144        block_6_add[0][0]
__________________________________________________________________________________________________
block_7_expand_BN (BatchNormali (None, 14, 14, 192)  768         block_7_expand[0][0]
__________________________________________________________________________________________________
block_7_expand_relu (ReLU)      (None, 14, 14, 192)  0           block_7_expand_BN[0][0]
__________________________________________________________________________________________________
block_7_pad (ZeroPadding2D)     (None, 15, 15, 192)  0           block_7_expand_relu[0][0]
__________________________________________________________________________________________________
block_7_depthwise (DepthwiseCon (None, 7, 7, 192)    1728        block_7_pad[0][0]
__________________________________________________________________________________________________
block_7_depthwise_BN (BatchNorm (None, 7, 7, 192)    768         block_7_depthwise[0][0]
__________________________________________________________________________________________________
block_7_depthwise_relu (ReLU)   (None, 7, 7, 192)    0           block_7_depthwise_BN[0][0]
__________________________________________________________________________________________________
block_7_project (Conv2D)        (None, 7, 7, 40)     7680        block_7_depthwise_relu[0][0]
__________________________________________________________________________________________________
block_7_project_BN (BatchNormal (None, 7, 7, 40)     160         block_7_project[0][0]
__________________________________________________________________________________________________
block_8_expand (Conv2D)         (None, 7, 7, 240)    9600        block_7_project_BN[0][0]
__________________________________________________________________________________________________
block_8_expand_BN (BatchNormali (None, 7, 7, 240)    960         block_8_expand[0][0]
__________________________________________________________________________________________________
block_8_expand_relu (ReLU)      (None, 7, 7, 240)    0           block_8_expand_BN[0][0]
__________________________________________________________________________________________________
block_8_depthwise (DepthwiseCon (None, 7, 7, 240)    2160        block_8_expand_relu[0][0]
__________________________________________________________________________________________________
block_8_depthwise_BN (BatchNorm (None, 7, 7, 240)    960         block_8_depthwise[0][0]
__________________________________________________________________________________________________
block_8_depthwise_relu (ReLU)   (None, 7, 7, 240)    0           block_8_depthwise_BN[0][0]
__________________________________________________________________________________________________
block_8_project (Conv2D)        (None, 7, 7, 40)     9600        block_8_depthwise_relu[0][0]
__________________________________________________________________________________________________
block_8_project_BN (BatchNormal (None, 7, 7, 40)     160         block_8_project[0][0]
__________________________________________________________________________________________________
block_8_add (Add)               (None, 7, 7, 40)     0           block_7_project_BN[0][0]
                                                                 block_8_project_BN[0][0]
__________________________________________________________________________________________________
transpose_9 (Conv2DTranspose)   (None, 14, 14, 40)   14400       block_8_add[0][0]
__________________________________________________________________________________________________
concatenate_9 (Concatenate)     (None, 14, 14, 72)   0           transpose_9[0][0]
                                                                 block_6_add[0][0]
__________________________________________________________________________________________________
block_9_expand (Conv2D)         (None, 14, 14, 432)  31104       concatenate_9[0][0]
__________________________________________________________________________________________________
block_9_expand_BN (BatchNormali (None, 14, 14, 432)  1728        block_9_expand[0][0]
__________________________________________________________________________________________________
block_9_expand_relu (ReLU)      (None, 14, 14, 432)  0           block_9_expand_BN[0][0]
__________________________________________________________________________________________________
block_9_depthwise (DepthwiseCon (None, 14, 14, 432)  3888        block_9_expand_relu[0][0]
__________________________________________________________________________________________________
block_9_depthwise_BN (BatchNorm (None, 14, 14, 432)  1728        block_9_depthwise[0][0]
__________________________________________________________________________________________________
block_9_depthwise_relu (ReLU)   (None, 14, 14, 432)  0           block_9_depthwise_BN[0][0]
__________________________________________________________________________________________________
block_9_project (Conv2D)        (None, 14, 14, 40)   17280       block_9_depthwise_relu[0][0]
__________________________________________________________________________________________________
block_9_project_BN (BatchNormal (None, 14, 14, 40)   160         block_9_project[0][0]
__________________________________________________________________________________________________
transpose_10 (Conv2DTranspose)  (None, 28, 28, 32)   11520       block_9_project_BN[0][0]
__________________________________________________________________________________________________
concatenate_10 (Concatenate)    (None, 28, 28, 56)   0           transpose_10[0][0]
                                                                 block_4_add[0][0]
__________________________________________________________________________________________________
block_10_expand (Conv2D)        (None, 28, 28, 336)  18816       concatenate_10[0][0]
__________________________________________________________________________________________________
block_10_expand_BN (BatchNormal (None, 28, 28, 336)  1344        block_10_expand[0][0]
__________________________________________________________________________________________________
block_10_expand_relu (ReLU)     (None, 28, 28, 336)  0           block_10_expand_BN[0][0]
__________________________________________________________________________________________________
block_10_depthwise (DepthwiseCo (None, 28, 28, 336)  3024        block_10_expand_relu[0][0]
__________________________________________________________________________________________________
block_10_depthwise_BN (BatchNor (None, 28, 28, 336)  1344        block_10_depthwise[0][0]
__________________________________________________________________________________________________
block_10_depthwise_relu (ReLU)  (None, 28, 28, 336)  0           block_10_depthwise_BN[0][0]
__________________________________________________________________________________________________
block_10_project (Conv2D)       (None, 28, 28, 32)   10752       block_10_depthwise_relu[0][0]
__________________________________________________________________________________________________
block_10_project_BN (BatchNorma (None, 28, 28, 32)   128         block_10_project[0][0]
__________________________________________________________________________________________________
transpose_11 (Conv2DTranspose)  (None, 56, 56, 24)   6912        block_10_project_BN[0][0]
__________________________________________________________________________________________________
concatenate_11 (Concatenate)    (None, 56, 56, 40)   0           transpose_11[0][0]
                                                                 block_2_add[0][0]
__________________________________________________________________________________________________
block_11_expand (Conv2D)        (None, 56, 56, 240)  9600        concatenate_11[0][0]
__________________________________________________________________________________________________
block_11_expand_BN (BatchNormal (None, 56, 56, 240)  960         block_11_expand[0][0]
__________________________________________________________________________________________________
block_11_expand_relu (ReLU)     (None, 56, 56, 240)  0           block_11_expand_BN[0][0]
__________________________________________________________________________________________________
block_11_depthwise (DepthwiseCo (None, 56, 56, 240)  2160        block_11_expand_relu[0][0]
__________________________________________________________________________________________________
block_11_depthwise_BN (BatchNor (None, 56, 56, 240)  960         block_11_depthwise[0][0]
__________________________________________________________________________________________________
block_11_depthwise_relu (ReLU)  (None, 56, 56, 240)  0           block_11_depthwise_BN[0][0]
__________________________________________________________________________________________________
block_11_project (Conv2D)       (None, 56, 56, 24)   5760        block_11_depthwise_relu[0][0]
__________________________________________________________________________________________________
block_11_project_BN (BatchNorma (None, 56, 56, 24)   96          block_11_project[0][0]
__________________________________________________________________________________________________
transpose_12 (Conv2DTranspose)  (None, 112, 112, 16) 3456        block_11_project_BN[0][0]
__________________________________________________________________________________________________
concatenate_12 (Concatenate)    (None, 112, 112, 24) 0           transpose_12[0][0]
                                                                 block_0_add[0][0]
__________________________________________________________________________________________________
block_12_expand (Conv2D)        (None, 112, 112, 144 3456        concatenate_12[0][0]
__________________________________________________________________________________________________
block_12_expand_BN (BatchNormal (None, 112, 112, 144 576         block_12_expand[0][0]
…
